resnet_model_quantized_dynamic.onnx (onnx, 279732 bytes, 17 tensors)

block1.0.bias f4 [64]
000000 ff ad 81 3f 26 3d 7a bc 87 82 19 40 21 73 e4 3e
       1.0131224 -0.015273368 2.3985918 0.44619086
000010 95 fc 2e 40 ae 8b eb 3f 7a 80 58 3f e4 7a f6 3f
       2.7341664 1.8402002 0.8457104 1.9256253
000020 23 64 01 40 29 1a 1c 3f d6 cb 20 3e 88 ba 44 3f
       2.0217369 0.6097742 0.15702757 0.76847124
000030 67 94 4b bf 2a 6d 32 3f 4f 1d 3e be 24 e4 c6 3e
       -0.7952332 0.6969782 -0.18565868 0.38845932
000040 b4 b0 f1 3e 80 ff 05 40 8e 18 9c bd d5 75 ed 3f
       0.47205126 2.0937195 -0.07621871 1.8551584
000050 ac 54 80 3e d0 cb ee 3f 71 75 13 bf 70 2d b5 3d
       0.250646 1.8655949 -0.57601076 0.08846557
000060 39 33 29 40 ad 3c 53 3f ad a0 84 3f 40 e3 8c 3f
       2.6437514 0.8251446 1.0361534 1.1006851
000070 c4 0f c8 3f 59 97 a7 3f e7 aa 55 bf e9 33 9e 3d
       1.5629811 1.3093063 -0.834639 0.07724745
000080 e5 84 6c bf 42 b4 80 3f c2 cd d5 bd 1a c5 16 40
       -0.9239028 1.005501 -0.10439636 2.3557801
000090 8b 1d b4 3e 7e 66 56 bf 12 eb 1d 40 51 a1 a8 3f
       0.3517879 -0.8375014 2.4674726 1.317423
0000a0 95 82 5d 3f 22 39 85 3f 4a 95 20 c0 60 c4 97 3f
       0.8652738 1.040806 -2.509112 1.1856804
0000b0 0d a0 fc 3f 35 0c 2c 3f ec 31 22 bf 9a 42 b3 3f
       1.9736344 0.67206126 -0.63357425 1.40047
0000c0 29 1f 4d 3f f8 42 6c bd bf e0 98 3e 35 99 9d bd
       0.8012567 -0.057681054 0.29858968 -0.076952375
0000d0 65 7c 48 3f df 82 0c c0 08 a4 f3 3e 0c 87 ce 3e
       0.7831481 -2.1954877 0.47586083 0.40337408
0000e0 90 b7 4d 3f 4d a2 24 3f d2 6f 9f 3e b9 d0 39 40
       0.8035822 0.6431015 0.3114 2.9033644
0000f0 39 a0 10 40 44 65 32 3f 01 15 6f 3f df c3 58 3f
       2.2597792 0.6968577 0.93391424 0.84673876

block1.2.bias f4 [64]
000000 45 11 e3 bc 54 c4 3c bf 78 ba 31 c0 9f d2 8c 3f
       -0.027718196 -0.7373707 -2.7770061 1.1001776
000010 bb 65 9f bf fc 77 b3 3f b0 e8 f4 3f 7e 23 1b 40
       -1.2452921 1.4020991 1.913351 2.4240413
000020 8c ef 39 c0 f0 a7 4c 40 3e 29 98 3d ca 25 c1 bd
       -2.9052458 3.19775 0.07429741 -0.09431036
000030 87 47 2a 3f ce e6 6b bd ef e6 ff bf d0 ff 10 40
       0.6651539 -0.05759316 -1.999235 2.2656136
000040 5b ac 33 bf 6f 9f 0b 3b 6e 13 b1 3f 20 0d d7 3f
       -0.7018487 0.0021304747 1.3834054 1.680088
000050 4a 3c d6 bc 5e 2e 24 3f b3 fd b9 bd d6 72 bf bc
       -0.026151795 0.6413325 -0.090815924 -0.023370188
000060 2e 6d ee 3e f0 f6 4d 3f 8a c8 81 3f 2a 3e 4c 3d
       0.46567672 0.8045492 1.0139325 0.04986397
000070 01 f6 fb 3d a9 05 1d 3e 1f aa 11 bd f9 9f 06 40
       0.12302781 0.1533419 -0.03556263 2.103514
000080 75 37 7c 3e ed cb 0b be 15 b3 50 3d ad bf de 3e
       0.2463053 -0.1365201 0.050952036 0.43505612
000090 e0 ce a3 be da bd 15 bf f8 71 ab 3d 94 a4 34 40
       -0.3199377 -0.58492815 0.08371347 2.822545
0000a0 f6 29 6f 3d f6 76 9e 3f 85 40 52 bc 7d c1 c6 3b
       0.058389626 1.2380054 -0.0128327655 0.006065546
0000b0 03 66 14 3e 8f 17 8f ba 36 d3 38 be 5f 21 28 bd
       0.1449204 -0.0010917055 -0.1804932 -0.04104745
0000c0 61 8d b7 bc 2e b5 27 be 9a 0a 04 bd 48 cd e5 be
       -0.022406282 -0.16377708 -0.032236673 -0.4488318
0000d0 54 34 d7 3f e8 83 86 be 14 ab d9 bc 56 5e 34 3c
       1.6812844 -0.2627251 -0.026570834 0.01100882
0000e0 c7 2b 0a 40 a6 0a 9d 3d 44 ff 76 bc 21 20 a2 3f
       2.158922 0.07668047 -0.0150755085 1.2666055
0000f0 41 10 13 3d 4e 13 9c 3e c0 ef a7 3c 07 0f 7e 3e
       0.035904173 0.30483478 0.020500064 0.2481042

block2.0.bias f4 [64]
000000 3e 10 fc bc 92 d9 dc bc c5 b5 61 bb 93 f0 3c 3d
       -0.030769464 -0.026959214 -0.0034440618 0.046127867
000010 45 da 2d 3d 44 3a 8e 3b 2e 56 0a 3d 9e 3b 84 bd
       0.042444486 0.004340442 0.033773594 -0.064566836
000020 ad d3 00 bd f3 46 8a ba f0 49 a9 3c 82 a3 fb 3c
       -0.03145187 -0.0010549709 0.020665139 0.030717615
000030 18 f4 6a 3b f2 89 91 3c e8 1f 1b bd 7f de 70 bb
       0.0035851058 0.017765973 -0.037872225 -0.0036753712
000040 19 a5 08 bd de dd 03 bd fe 2c 7b be 32 d4 f4 bc
       -0.033360574 -0.03219401 -0.24528882 -0.029886339
000050 25 52 e2 3c e9 32 56 3e 67 91 58 bd e6 03 3f bc
       0.02762706 0.20917858 -0.05287304 -0.011658644
000060 a6 cf 8c 3c d2 d1 8b be 66 de 25 3d d0 0c 84 3b
       0.017188858 -0.27308518 0.0404953 0.0040298477
000070 3e c9 0c bd b2 2a 28 bd 20 04 82 bd 35 9a ef bc
       -0.034371607 -0.041056342 -0.06348443 -0.029248336
000080 db 84 50 3c ea e3 f6 bc ec 5a f7 3b de cf 10 bb
       0.012726988 -0.030137975 0.0075486805 -0.0022096555
000090 2d dd cd bc 25 84 9c 3b 1e 19 f0 38 40 35 82 be
       -0.025129879 0.004776495 0.0001144877 -0.25431252
0000a0 92 e3 6b bc 63 a3 b9 bc fb 00 2c bd e0 30 2a 3c
       -0.014397519 -0.022660917 -0.041993123 0.010387629
0000b0 a9 eb b5 bd ca 47 6b 3c cf 4b 5d 3f 4a 02 37 bf
       -0.08882839 0.014360378 0.864438 -0.7148787
0000c0 d7 d3 08 bd fc 51 b8 bd ef 1f 92 3c a5 2a 0c 3c
       -0.03340515 -0.09000012 0.017837493 0.008555089
0000d0 06 42 3c 3c d8 f0 20 3c 80 77 29 3f 9d ed 8e 3d
       0.011490351 0.009823047 0.6619797 0.06978915
0000e0 b3 b8 80 3d 96 08 0d bd 6a 83 c0 bc 86 e8 b8 bc
       0.062852286 -0.034432016 -0.023500163 -0.022571813
0000f0 a2 ec 6a 3c e2 b8 0c bd fb bd 46 bc a9 86 69 3c
       0.014338644 -0.034356005 -0.012130256 0.014253297

block2.2.bias f4 [64]
000000 a9 67 08 be b1 25 0b 3c 00 95 85 3d 6c 14 89 be
       -0.13320793 0.008492873 0.0652256 -0.26773393
000010 48 76 f2 3c a6 63 5e be 7e 79 83 be 6e 9c ed bd
       0.029597417 -0.217177 -0.2567863 -0.11602102
000020 48 43 5d be 7d 40 b2 bc 8e 5f 59 be 7b 9b ad 3d
       -0.21607697 -0.021759266 -0.21227857 0.08476921
000030 84 23 8a 3d 0f d1 14 3d 46 84 f9 bd 83 7d 06 bd
       0.06745055 0.036332186 -0.12183432 -0.03283454
000040 6e 95 b1 be 09 91 24 be e4 b3 2f 3c ef 0d 01 bf
       -0.34684318 -0.16070952 0.010724042 -0.50411886
000050 a6 71 c9 3b 3e 65 43 be d6 25 7a be 23 b8 33 3e
       0.006147581 -0.1908159 -0.24428496 0.17550711
000060 3d 5f 8e bd 6f 06 a2 3d 55 e4 eb bb d9 7c 01 bc
       -0.06951759 0.07911383 -0.00719885 -0.007903301
000070 01 c2 4a ba 89 ef 08 be 7b 04 db bd c5 ab 72 3d
       -0.00077345973 -0.13372625 -0.10694214 0.059245843
000080 5b 50 ec bc 91 d1 f3 bd 88 32 1e bd 9e c8 f9 bd
       -0.02884691 -0.11905206 -0.03862241 -0.12196468
000090 4f 45 76 bd ad 97 1a be 5f ae d7 3d 06 64 a7 bd
       -0.06012469 -0.15096922 0.105313055 -0.08173375
0000a0 97 b5 81 be fb bc c4 3c 06 bf 84 be f9 ee b2 be
       -0.25333855 0.024015894 -0.2592699 -0.34947947
0000b0 d4 02 20 be ce 6b 36 be aa b5 8c bd de 43 dd 3d
       -0.15626079 -0.17814562 -0.06870587 0.1080396
0000c0 e3 69 bb be e1 19 a3 be 67 e7 39 be 4b 4b cc be
       -0.36604223 -0.31855682 -0.18154679 -0.39901194
0000d0 d3 c5 d7 bd a4 2a 28 be 88 97 f7 bc b5 45 b6 bd
       -0.10535779 -0.16422516 -0.030223623 -0.08900014
0000e0 35 23 14 3d a2 9d 84 39 22 83 3f be 3d d3 34 be
       0.03616639 0.00025294448 -0.18702367 -0.17658706
0000f0 e0 c9 20 be ae 9e 44 bd 01 11 3e bd d3 23 5c bd
       -0.15702009 -0.04800289 -0.046402935 -0.053745102

block3.0.bias f4 [64]
000000 77 94 3f 3c 06 24 75 bc 9f 11 19 bd d4 fa 02 bd
       0.011693112 -0.014962202 -0.03737032 -0.03197749
000010 3c b2 76 3d cd 76 81 3e 5b c9 b3 bd 34 04 65 3d
       0.06022857 0.2528595 -0.0877864 0.05591221
000020 76 6e 4a 3c ea cb 0a 3f c5 c1 2b be c1 c8 4e be
       0.0123554375 0.542174 -0.16773136 -0.20193769
000030 f9 e3 66 3d 0c 91 17 bd b3 b5 d1 bc a4 1f 59 bd
       0.056369755 -0.03700356 -0.025599336 -0.05300869
000040 65 a3 03 bf 9b f3 59 bc 04 ad 79 3c 88 e4 43 bd
       -0.51421195 -0.013302709 0.015239004 -0.047825366
000050 3d ba 85 bb 70 56 12 3d 57 4b 8f 3c d1 49 c1 3d
       -0.004081039 0.035726964 0.01749198 0.094379075
000060 6c 9f 54 3d e9 ce ba 3c de eb dd ba c0 1a ac be
       0.05190985 0.02280374 -0.0016931256 -0.3361416
000070 01 41 31 3e 2b 0d cb bc af b7 eb bc 8e 9f 67 bb
       0.17309953 -0.024786552 -0.02877411 -0.0035342905
000080 a1 1f ef 3c 31 0c cf 3c 70 97 db 3b 03 86 cd 39
       0.029189887 0.025274368 0.0067014024 0.00039200493
000090 3e d2 d7 3c 18 99 51 bd c2 97 fb 3c fe 68 dd bb
       0.026345368 -0.051171392 0.030712012 -0.006756901
0000a0 fd 3b a9 bd 2d 44 c2 3d e6 d7 6a bd 7e b3 0f 3d
       -0.08263395 0.0948566 -0.057334803 0.035083286
0000b0 24 60 60 3d 0a 62 12 3e bc 9c 4f bc 04 0a 82 3c
       0.054779187 0.14295211 -0.012671646 0.015873916
0000c0 80 dd a6 3d 33 ba 53 3d 37 72 22 bd bc 3e 37 bd
       0.081477165 0.051691245 -0.039659705 -0.044737563
0000d0 16 cb 1e bb 1e 6b 30 bd b3 49 41 bd 7d 8e 69 bd
       -0.0024229935 -0.043070905 -0.047189426 -0.057020653
0000e0 4d 81 79 3d 39 cf f6 3c f0 f5 41 3d 5e 8a 07 bd
       0.060914326 0.030128108 0.047353685 -0.03309094
0000f0 81 61 30 bb 96 53 ed bd c2 f4 9d bc 63 82 4a bc
       -0.0026913586 -0.115882084 -0.019281749 -0.012360188

block3.2.bias f4 [64]
000000 53 a4 ec bc cd 48 12 bd 3b 4d df 3b 32 27 49 bf
       -0.02888695 -0.03571396 0.0068146265 -0.7857543
000010 ea 84 c3 be af 00 be bc b9 64 c7 be eb bd c2 bd
       -0.38187343 -0.023193685 -0.38944033 -0.0950888
000020 18 e4 44 be a5 87 de be 41 22 0e 3c 87 f1 a8 bd
       -0.19227636 -0.43462864 0.008675159 -0.08249193
000030 93 9c 49 be 0e bd 32 be 12 39 dc be 6b 01 b1 be
       -0.19688635 -0.17454931 -0.4301229 -0.34571394
000040 a8 5b 82 be 44 e4 c0 3c 43 33 61 be a0 57 06 bf
       -0.25460553 0.023546346 -0.21992211 -0.52477455
000050 a4 c1 8b be df 86 4b be de 26 b9 bc 23 bf 04 be
       -0.27296174 -0.19875668 -0.022601541 -0.12963538
000060 44 9c 66 bc e0 a3 df be de 31 c7 3a cb f8 61 bd
       -0.014075343 -0.43679714 0.0015197357 -0.055168908
000070 44 f8 20 be 2a 5e d8 be 7a 9d b8 be f4 52 48 bf
       -0.15719706 -0.4225934 -0.36057645 -0.78251576
000080 04 ed 58 bc d0 68 a2 be e4 2c 52 be 06 25 af bd
       -0.013240103 -0.3172059 -0.20524937 -0.085519835
000090 52 dd 8a bd fa 61 63 3b 8c da 1e be 0b 90 48 be
       -0.06780495 0.003469585 -0.15513057 -0.19586198
0000a0 82 bf 99 bd 71 4c 32 be 7b 3c 58 bd 36 a1 b7 bd
       -0.0750723 -0.17411973 -0.052792054 -0.089662954
0000b0 a1 96 18 be da 68 06 bd 11 59 fa bd 80 f7 16 be
       -0.1490121 -0.032814838 -0.12224019 -0.14742851
0000c0 b7 fb 3f bf 92 56 d1 bd 1c 35 94 bd eb 0a 95 be
       -0.7499346 -0.1022159 -0.07236692 -0.29109892
0000d0 90 48 fd be b4 f8 e2 3c 74 04 ea bd c3 67 11 bd
       -0.49469423 0.027706482 -0.114266306 -0.035499346
0000e0 93 07 64 be 82 a1 d7 3b b8 a0 18 bf b2 cb fa bd
       -0.22268514 0.0065805325 -0.5962024 -0.12245883
0000f0 fa f4 9e be 58 04 27 be 6b 9c 11 bd 0f 9f 54 bd
       -0.31046277 -0.16310251 -0.035549562 -0.051909503

block4.0.bias f4 [64]
000000 e6 a5 8a bc f6 e2 17 3c f3 5f 38 bb 20 6f 21 bd
       -0.01692481 0.00927042 -0.0028133362 -0.039412618
000010 00 68 72 bc 83 1d 2f bd 1f bc 3f bd d0 c3 1a 37
       -0.014795303 -0.042752754 -0.046810266 9.224706e-06
000020 81 06 fd bc c0 15 1d bd db 22 3e bd ec c8 08 bc
       -0.03088689 -0.03835082 -0.04641996 -0.008348685
000030 33 23 3a 3b ad 53 8a bc 5f 74 ed 3a 8b 46 3a 3d
       0.0028402328 -0.016885603 0.0018116346 0.04547743
000040 5f c0 31 3b 2d 7e 26 bd 24 66 e7 3c 13 6b ff bb
       0.0027122719 -0.040647674 0.028246947 -0.0077947467
000050 f5 54 b3 bc 9a 84 44 bd 1f 14 8d bd 14 84 91 3c
       -0.021891097 -0.04797802 -0.068886034 0.017763175
000060 9a 99 4d bd ee 11 a3 bc e1 e5 6a bd 9c e0 32 3c
       -0.050195314 -0.01990601 -0.057348136 0.010917809
000070 8e 7e 9e bc af 87 90 bb b8 2f f4 bc 22 f5 d1 bc
       -0.019347455 -0.004410706 -0.02980791 -0.025629584
000080 05 10 a4 bc 54 91 e4 bc 48 82 84 3a bb 1e 33 bd
       -0.02002717 -0.02790133 0.0010109628 -0.04373048
000090 26 2b 9b bc 51 3d 3d 3c 1d eb d5 3c ea 7c 88 be
       -0.018941473 0.0115502635 0.026113087 -0.26657802
0000a0 33 14 2e bc a6 57 3e bd 7f c4 24 bd 45 26 d2 38
       -0.010624933 -0.046470307 -0.040226456 0.000100207086
0000b0 a2 84 ea bd 3b 7a 28 3d b2 81 60 bd 8d 8e 7a 3d
       -0.11451079 0.041132193 -0.054811187 0.061171103
0000c0 52 40 1a bd 19 64 06 bd 5b 29 92 ba ee 91 e7 bc
       -0.037658997 -0.032810304 -0.0011151241 -0.028267827
0000d0 e3 d8 c3 3c 22 7b c8 bd 31 87 96 be e6 26 41 bd
       0.02390713 -0.09789111 -0.29400018 -0.047156237
0000e0 c5 a1 07 bb 0f 88 f1 3c 05 0f e2 3c 72 28 e8 3c
       -0.0020695787 0.029483823 0.027595052 0.028339598
0000f0 5f 55 00 bd cf ea 36 bd 78 cd 10 ba cc 89 fd bc
       -0.031331416 -0.044657525 -0.00055237813 -0.030949496

block4.2.bias f4 [64]
000000 01 8b 67 bb ea 7f 29 bd 90 67 ad be 2f f2 bb bd
       -0.0035330656 -0.041381754 -0.33868074 -0.09177052
000010 2f 36 97 ba 9e 6f 53 bc 36 bd 97 be 21 4e 62 bf
       -0.0011536534 -0.01290503 -0.29636544 -0.88400465
000020 a1 b0 a1 be d7 be 23 be ca 5f 4b be 77 85 c5 bb
       -0.3158007 -0.15990768 -0.1986076 -0.006027873
000030 ee 80 5e bd 5c d6 3e bd 1b 6a 04 be 85 23 aa bc
       -0.054322176 -0.046591148 -0.12931101 -0.02076889
000040 dc 18 ce bc 9b ef 57 3c 3d b8 d1 bd 4e 72 b2 be
       -0.025158338 0.013179685 -0.10240219 -0.34852833
000050 39 21 c3 be 1e e9 a7 bb e8 70 72 bc a3 d2 ad bd
       -0.38111284 -0.0051242253 -0.014797427 -0.084874414
000060 7e f2 b1 bb 52 41 9e bd 84 f7 40 ba fe 1c 23 be
       -0.0054305186 -0.077273026 -0.00073611015 -0.15929028
000070 08 3d 5b bd 58 42 61 bd 6b db bb bd bd 03 06 bd
       -0.053525 -0.05499491 -0.0917271 -0.03271841
000080 0c 0c 31 be cf 83 8a bd 69 2e 52 bd 9e 5c 15 bd
       -0.17289752 -0.06763422 -0.05131379 -0.03646528
000090 91 ea 95 ba e6 22 9d bd e5 f4 fb bd 1e 32 02 3c
       -0.0011437704 -0.07672672 -0.12302569 0.007946519
0000a0 22 33 02 bd b4 02 03 bb 73 9b 4e be 34 3e 28 be
       -0.031787045 -0.0019990625 -0.20176487 -0.16429979
0000b0 52 13 09 bd 4f 6a 10 bb 88 12 27 ba db 65 8b be
       -0.03346569 -0.002203602 -0.0006373306 -0.27226147
0000c0 38 33 00 3d ee 6c e4 3c b6 29 fc bd 7e bc c2 bc
       0.031298846 0.027883973 -0.12312643 -0.02377152
0000d0 d8 32 53 3c 67 6d 36 b9 3a fd 2c bd dc 93 1c bd
       0.01289054 -0.00017397628 -0.042233683 -0.038226947
0000e0 36 e5 88 bc c0 27 5f bc b1 e8 16 be 6a 40 99 bd
       -0.016710859 -0.013620317 -0.14737202 -0.07482989
0000f0 2b d9 da 3c 9c b6 da 3b 68 b9 07 be 5a 2a e9 bc
       0.026714882 0.0066746008 -0.1325432 -0.028462578

block1.0.weight_quantized u1 [64, 1, 3, 3]
000000 22 cf bb b0 7a 1d 7c 74 ab 69 a2 d5 c7 78 c7 55
       34 207 187 176 122 29 124 116 171 105 162 213 199 120 199 85
000010 28 46 5f 88 83 eb 91 6f 4f 6f 8e 5e 88 d5 ce 94
       40 70 95 136 131 235 145 111 79 111 142 94 136 213 206 148
000020 86 55 50 5c b3 57 73 e0 e0 76 29 a4 2c 98 5d e5
       134 85 80 92 179 87 115 224 224 118 41 164 44 152 93 229
000030 9d 38 ea 8a 3f 4a 83 39 44 cb 8e 79 7d b1 96 68
       157 56 234 138 63 74 131 57 68 203 142 121 125 177 150 104
000040 71 a0 c3 a1 5e 4c a8 78 ce 27 aa 61 89 59 72 ab
       113 160 195 161 94 76 168 120 206 39 170 97 137 89 114 171
000050 9a a2 62 2e 4c bd c0 62 a6 a1 61 33 c1 b5 95 a5
       154 162 98 46 76 189 192 98 166 161 97 51 193 181 149 165
000060 57 b1 47 25 88 33 ab 81 9e b6 c1 85 83 c8 92 8d
       87 177 71 37 136 51 171 129 158 182 193 133 131 200 146 141
000070 84 43 94 64 44 a2 11 57 b7 50 b2 71 ab c7 a5 5a
       132 67 148 100 68 162 17 87 183 80 178 113 171 199 165 90
000080 7e 54 4f 9b 7b 8f dd 43 c0 6b 83 28 87 b3 91 c6
       126 84 79 155 123 143 221 67 192 107 131 40 135 179 145 198
000090 76 96 a7 a0 a5 69 86 69 28 c8 aa 7c 25 52 4b 52
       118 150 167 160 165 105 134 105 40 200 170 124 37 82 75 82
0000a0 ca db 6c 41 d7 44 c2 d2 3b ba 53 bd bb 37 6d 25
       202 219 108 65 215 68 194 210 59 186 83 189 187 55 109 37
0000b0 72 9b c6 83 1a c8 c0 39 a3 a6 6d 69 74 d5 55 3c
       114 155 198 131 26 200 192 57 163 166 109 105 116 213 85 60
0000c0 83 cb e9 52 7b 3d b0 be 37 7b b7 b8 9d 33 2a 38
       131 203 233 82 123 61 176 190 55 123 183 184 157 51 42 56
0000d0 79 b5 3e 94 70 99 7b e7 8e ae 5a d5 ca 52 31 34
       121 181 62 148 112 153 123 231 142 174 90 213 202 82 49 52
0000e0 bf cf 89 a2 72 37 30 6a bc 9d 91 9b a1 54 30 c8
       191 207 137 162 114 55 48 106 188 157 145 155 161 84 48 200
0000f0 93 c1 19 ad 9d 75 c4 a7 4d 0b 5a b3 bb 1c 8b 93
       147 193 25 173 157 117 196 167 77 11 90 179 187 28 139 147

block1.2.weight_quantized u1 [64, 64, 3, 3]
000000 89 87 83 83 87 88 86 83 84 84 87 87 83 89 88 87
       137 135 131 131 135 136 134 131 132 132 135 135 131 137 136 135
000010 88 83 83 88 8a 88 84 83 84 88 83 88 82 83 85 89
       136 131 131 136 138 136 132 131 132 136 131 136 130 131 133 137
000020 86 83 82 84 84 85 86 88 84 86 83 85 86 82 84 88
       134 131 130 132 132 133 134 136 132 134 131 133 134 130 132 136
000030 82 84 87 88 87 84 88 85 87 84 84 83 88 8a 88 8a
       130 132 135 136 135 132 136 133 135 132 132 131 136 138 136 138
000040 85 88 85 8b 87 89 86 8a 83 89 87 8b 82 87 8b 8a
       133 136 133 139 135 137 134 138 131 137 135 139 130 135 139 138
000050 85 84 87 89 8a 84 89 88 89 87 84 89 88 84 85 88
       133 132 135 137 138 132 137 136 137 135 132 137 136 132 133 136
000060 83 88 88 8a 82 86 86 82 84 87 85 87 85 87 83 85
       131 136 136 138 130 134 134 130 132 135 133 135 133 135 131 133
000070 86 89 83 86 85 82 86 88 87 87 89 82 8a 87 8a 87
       134 137 131 134 133 130 134 136 135 135 137 130 138 135 138 135
000080 82 8a 83 88 86 8a 87 85 85 87 88 8a 87 84 89 83
       130 138 131 136 134 138 135 133 133 135 136 138 135 132 137 131
000090 88 88 83 89 87 87 8a 89 83 89 86 84 87 83 83 82
       136 136 131 137 135 135 138 137 131 137 134 132 135 131 131 130
0000a0 8a 87 86 87 89 88 87 82 87 87 85 85 8a 84 8b 86
       138 135 134 135 137 136 135 130 135 135 133 133 138 132 139 134
0000b0 82 87 89 87 8b 87 84 8a 87 83 86 84 8a 86 85 83
       130 135 137 135 139 135 132 138 135 131 134 132 138 134 133 131
0000c0 85 89 83 8a 85 89 88 88 89 8b 84 87 89 83 88 8a
       133 137 131 138 133 137 136 136 137 139 132 135 137 131 136 138
0000d0 89 89 83 88 82 85 85 89 88 87 8a 83 89 8a 87 86
       137 137 131 136 130 133 133 137 136 135 138 131 137 138 135 134
0000e0 85 89 83 88 86 85 86 89 83 85 8a 89 86 8a 89 88
       133 137 131 136 134 133 134 137 131 133 138 137 134 138 137 136
0000f0 87 85 84 85 82 87 8a 84 89 86 84 85 88 86 83 88
       135 133 132 133 130 135 138 132 137 134 132 133 136 134 131 136

block2.0.weight_quantized u1 [64, 64, 3, 3]
000000 7a 83 7d 7c 5c 63 78 72 82 63 67 79 80 76 6d 6b
       122 131 125 124 92 99 120 114 130 99 103 121 128 118 109 107
000010 7c 78 62 70 6c 85 81 6f 7d 6e 6e 65 59 5a 5d 69
       124 120 98 112 108 133 129 111 125 110 110 101 89 90 93 105
000020 6f 6b 67 7e 78 69 7c 72 84 70 65 74 7a 5a 82 78
       111 107 103 126 120 105 124 114 132 112 101 116 122 90 130 120
000030 71 79 7e 72 7f 87 7d 6f 67 7c 86 64 83 6f 67 75
       113 121 126 114 127 135 125 111 103 124 134 100 131 111 103 117
000040 82 62 58 7c 7f 80 68 5d 5e 75 60 74 66 7c 68 74
       130 98 88 124 127 128 104 93 94 117 96 116 102 124 104 116
000050 7e 66 7d 75 7d 6b 58 81 7e 6e 7d 6a 85 5e 78 82
       126 102 125 117 125 107 88 129 126 110 125 106 133 94 120 130
000060 71 69 6c 7e 62 58 64 87 5f 71 70 59 83 77 69 73
       113 105 108 126 98 88 100 135 95 113 112 89 131 119 105 115
000070 85 59 75 5a 62 81 7a 77 71 79 7a 79 83 76 60 72
       133 89 117 90 98 129 122 119 113 121 122 121 131 118 96 114
000080 71 7f 79 7e 6e 69 69 87 59 5c 71 85 87 6c 82 6f
       113 127 121 126 110 105 105 135 89 92 113 133 135 108 130 111
000090 6c 72 7d 5f 7f 84 6d 7f 6c 7a 5e 76 58 67 65 60
       108 114 125 95 127 132 109 127 108 122 94 118 88 103 101 96
0000a0 6f 59 6b 68 6b 72 61 5a 87 6f 7b 5b 6a 6f 82 77
       111 89 107 104 107 114 97 90 135 111 123 91 106 111 130 119
0000b0 58 7c 72 7f 75 5c 6c 7f 6d 83 7b 79 6e 5f 6f 65
       88 124 114 127 117 92 108 127 109 131 123 121 110 95 111 101
0000c0 83 72 83 82 7f 84 7c 5e 83 87 63 7a 76 5b 62 65
       131 114 131 130 127 132 124 94 131 135 99 122 118 91 98 101
0000d0 7f 74 6a 84 71 5a 81 7e 78 75 77 5f 69 7c 63 6e
       127 116 106 132 113 90 129 126 120 117 119 95 105 124 99 110
0000e0 70 81 60 76 59 6a 84 62 76 86 86 80 82 78 6f 5c
       112 129 96 118 89 106 132 98 118 134 134 128 130 120 111 92
0000f0 81 68 82 69 60 5f 65 74 66 87 72 69 68 85 7a 60
       129 104 130 105 96 95 101 116 102 135 114 105 104 133 122 96

block2.2.weight_quantized u1 [64, 64, 3, 3]
000000 97 97 90 8d 92 91 97 94 8c 8f 8d 8d 8c 91 94 90
       151 151 144 141 146 145 151 148 140 143 141 141 140 145 148 144
000010 95 91 90 93 8f 95 8c 97 8d 90 8e 91 90 8c 8f 8a
       149 145 144 147 143 149 140 151 141 144 142 145 144 140 143 138
000020 97 8e 8b 8d 98 91 98 96 91 91 8d 91 93 95 95 90
       151 142 139 141 152 145 152 150 145 145 141 145 147 149 149 144
000030 8d 8e 93 91 90 90 96 91 92 97 91 96 99 95 93 97
       141 142 147 145 144 144 150 145 146 151 145 150 153 149 147 151
000040 97 8f 91 95 8d 8e 8d 8f 93 95 91 8d 90 8e 93 90
       151 143 145 149 141 142 141 143 147 149 145 141 144 142 147 144
000050 8d 96 8f 91 94 94 8d 97 98 98 91 8a 99 90 88 92
       141 150 143 145 148 148 141 151 152 152 145 138 153 144 136 146
000060 92 9b 99 95 92 90 99 8f 8d 93 8e 90 8b 97 8f 91
       146 155 153 149 146 144 153 143 141 147 142 144 139 151 143 145
000070 96 8e 98 91 8b 97 95 96 8d 8d 8e 92 96 93 8d 93
       150 142 152 145 139 151 149 150 141 141 142 146 150 147 141 147
000080 8e 93 8e 8e 91 97 97 78 56 89 90 6b 8e a0 af 96
       142 147 142 142 145 151 151 120 86 137 144 107 142 160 175 150
000090 91 8d 94 8f 93 8d 93 91 94 96 90 94 98 92 91 93
       145 141 148 143 147 141 147 145 148 150 144 148 152 146 145 147
0000a0 97 98 8d 8f 97 8d 90 94 9c 98 8c 93 8f 98 97 8c
       151 152 141 143 151 141 144 148 156 152 140 147 143 152 151 140
0000b0 92 93 91 8f 8f 90 96 91 8d 91 90 8c 8b 91 8e 96
       146 147 145 143 143 144 150 145 141 145 144 140 139 145 142 150
0000c0 8c 96 8d 93 8d 90 8d 8e 8d 8e 8d 8f 8d 94 91 be
       140 150 141 147 141 144 141 142 141 142 141 143 141 148 145 190
0000d0 81 4f ad 8a 85 9e 86 7e 8b 93 94 8d 8f 9b 87 98
       129 79 173 138 133 158 134 126 139 147 148 141 143 155 135 152
0000e0 8f 91 93 91 91 8b 93 90 96 98 90 95 92 91 93 94
       143 145 147 145 145 139 147 144 150 152 144 149 146 145 147 148
0000f0 95 92 8d 8e 90 8b 93 90 8e 8c 8e 8d 8f 8f 94 98
       149 146 141 142 144 139 147 144 142 140 142 141 143 143 148 152

block3.0.weight_quantized u1 [64, 64, 3, 3]
000000 83 63 7f a5 85 99 a5 97 89 aa 66 a1 95 77 70 82
       131 99 127 165 133 153 165 151 137 170 102 161 149 119 112 130
000010 a9 5b ae 76 64 7c 6a 8f ab 8c 5d 94 7a 70 5e 7a
       169 91 174 118 100 124 106 143 171 140 93 148 122 112 94 122
000020 5b a1 5d 73 8b a3 69 aa a6 7d ae 70 82 5d 62 62
       91 161 93 115 139 163 105 170 166 125 174 112 130 93 98 98
000030 6d 99 5b 7f ad 69 8f 76 ac 60 95 8d ac 66 a6 7f
       109 153 91 127 173 105 143 118 172 96 149 141 172 102 166 127
000040 ae 9e a8 6d 78 6a 86 6c 61 a1 5c 6a 6c 95 65 6e
       174 158 168 109 120 106 134 108 97 161 92 106 108 149 101 110
000050 a2 68 a1 8c 9a 7b 7e aa 6f a6 6b 8e 5f 9e 92 6c
       162 104 161 140 154 123 126 170 111 166 107 142 95 158 146 108
000060 65 72 80 79 65 97 66 98 7f 9c 5b a4 61 61 a3 77
       101 114 128 121 101 151 102 152 127 156 91 164 97 97 163 119
000070 8b a1 79 ad 70 93 82 6a 6d 75 65 7f 6f 8f 6e ad
       139 161 121 173 112 147 130 106 109 117 101 127 111 143 110 173
000080 97 9a 7b 99 5d 7e 96 8b ae 7a 60 a0 5b 6f a0 5e
       151 154 123 153 93 126 150 139 174 122 96 160 91 111 160 94
000090 9f 76 6c 5a 9a 92 8c 5b 74 6d 61 87 9c a7 a7 84
       159 118 108 90 154 146 140 91 116 109 97 135 156 167 167 132
0000a0 90 9f 88 5c 5b 72 6e 79 72 96 76 6d aa 6b 5e 94
       144 159 136 92 91 114 110 121 114 150 118 109 170 107 94 148
0000b0 63 6b a5 7d 96 6b 88 5e 86 91 87 a4 a7 5d 88 8f
       99 107 165 125 150 107 136 94 134 145 135 164 167 93 136 143
0000c0 90 98 79 90 76 7d ae 89 a6 5e 88 7c 6b 73 80 8b
       144 152 121 144 118 125 174 137 166 94 136 124 107 115 128 139
0000d0 78 91 95 6a aa a2 71 a6 7e 85 87 79 87 a9 8b 7a
       120 145 149 106 170 162 113 166 126 133 135 121 135 169 139 122
0000e0 81 94 5d 9f 7a 6a a6 5c 8f 72 89 7d 9e 73 87 77
       129 148 93 159 122 106 166 92 143 114 137 125 158 115 135 119
0000f0 7b 74 78 7a 9b 6c a7 7e 69 9c 86 73 9f 5b 69 80
       123 116 120 122 155 108 167 126 105 156 134 115 159 91 105 128

block3.2.weight_quantized u1 [64, 64, 3, 3]
000000 60 63 65 68 69 65 5f 64 61 70 40 52 64 5a 6b 74
       96 99 101 104 105 101 95 100 97 112 64 82 100 90 107 116
000010 56 3e 6a 69 61 5c 6e 65 57 6e 62 5f 65 59 63 65
       86 62 106 105 97 92 110 101 87 110 98 95 101 89 99 101
000020 62 69 64 61 69 65 6c 6a 68 6d 6a 65 6d 74 67 4b
       98 105 100 97 105 101 108 106 104 109 106 101 109 116 103 75
000030 86 7c 6e 32 45 87 60 68 61 64 60 64 66 67 61 6f
       134 124 110 50 69 135 96 104 97 100 96 100 102 103 97 111
000040 73 4a 82 63 2a 69 83 7c 66 73 5d 6d 86 69 65 68
       115 74 130 99 42 105 131 124 102 115 93 109 134 105 101 104
000050 75 63 59 65 60 60 63 63 6b 64 68 93 61 53 63 9e
       117 99 89 101 96 96 99 99 107 100 104 147 97 83 99 158
000060 51 51 5d 5d 62 66 5f 60 64 5f 64 65 67 5f 63 69
       81 81 93 93 98 102 95 96 100 95 100 101 103 95 99 105
000070 60 5f 68 5c 5e 56 5d 65 7c 5b 5f 5e 6b 56 65 65
       96 95 104 92 94 86 93 101 124 91 95 94 107 86 101 101
000080 5c 59 47 65 67 67 5c 58 41 85 5c 5c 63 5c 56 48
       92 89 71 101 103 103 92 88 65 133 92 92 99 92 86 72
000090 64 5f 64 64 65 67 66 5e 63 66 62 68 78 62 6a 69
       100 95 100 100 101 103 102 94 99 102 98 104 120 98 106 105
0000a0 54 66 69 56 45 73 5e 4f 65 6a 56 68 62 64 68 5b
       84 102 105 86 69 115 94 79 101 106 86 104 98 100 104 91
0000b0 63 60 60 6c 5e 65 63 5d 64 57 6c 56 54 57 69 5f
       99 96 96 108 94 101 99 93 100 87 108 86 84 87 105 95
0000c0 67 63 5b 64 66 5b 3e 55 64 42 3a 4e 86 ac 91 69
       103 99 91 100 102 91 62 85 100 66 58 78 134 172 145 105
0000d0 69 62 66 5e 68 61 60 64 67 60 61 62 6c 63 68 61
       105 98 102 94 104 97 96 100 103 96 97 98 108 99 104 97
0000e0 60 65 62 61 5e 63 67 63 6c 56 63 67 61 67 62 66
       96 101 98 97 94 99 103 99 108 86 99 103 97 103 98 102
0000f0 6b 6c 6a 6b 6d 61 66 67 65 6b 64 68 87 67 87 81
       107 108 106 107 109 97 102 103 101 107 100 104 135 103 135 129

block4.0.weight_quantized u1 [64, 64, 3, 3]
000000 bd b6 90 c6 b0 ce 94 9c d3 ac 9e 91 a3 9d 85 79
       189 182 144 198 176 206 148 156 211 172 158 145 163 157 133 121
000010 c5 b9 bf b6 c0 d0 a4 8b 6f 96 90 d0 c0 a2 a2 ba
       197 185 191 182 192 208 164 139 111 150 144 208 192 162 162 186
000020 8e d3 95 68 ce 7d 6a 96 8a c6 d4 7c 6b b7 9f d4
       142 211 149 104 206 125 106 150 138 198 212 124 107 183 159 212
000030 9a cc 83 b2 80 82 cd a0 6c cc b5 ac 88 cc bd 7f
       154 204 131 178 128 130 205 160 108 204 181 172 136 204 189 127
000040 8f ce 71 8a 76 c9 ba be 7e 98 a2 9e 83 b0 ae c7
       143 206 113 138 118 201 186 190 126 152 162 158 131 176 174 199
000050 79 b0 8f 8f 74 8f d2 be ad 95 74 bf c3 c9 96 76
       121 176 143 143 116 143 210 190 173 149 116 191 195 201 150 118
000060 bf bd a2 ca 8b aa 88 bc 76 72 ac b8 7c 77 72 6a
       191 189 162 202 139 170 136 188 118 114 172 184 124 119 114 106
000070 83 ba 68 b6 70 8b c8 7f 90 a3 c9 86 cb 77 bf d0
       131 186 104 182 112 139 200 127 144 163 201 134 203 119 191 208
000080 a8 7d 71 99 af 6a 6d b0 6c 6e 9f bb b5 cf 9e 7c
       168 125 113 153 175 106 109 176 108 110 159 187 181 207 158 124
000090 96 70 b7 6c 68 bc b3 be 82 90 d1 68 bc d0 8d 7a
       150 112 183 108 104 188 179 190 130 144 209 104 188 208 141 122
0000a0 89 bf b5 b4 c5 b5 85 9f bf a4 a9 be 92 6e 99 bc
       137 191 181 180 197 181 133 159 191 164 169 190 146 110 153 188
0000b0 d2 97 c3 70 b8 bc a9 6c 99 b8 b8 a3 bd 8b 90 81
       210 151 195 112 184 188 169 108 153 184 184 163 189 139 144 129
0000c0 6c 76 94 8f 6d ad a1 68 94 68 71 86 c7 ab cd cd
       108 118 148 143 109 173 161 104 148 104 113 134 199 171 205 205
0000d0 b2 c0 a8 c5 c4 b5 bd bd 79 84 d2 ac c6 a9 8e a8
       178 192 168 197 196 181 189 189 121 132 210 172 198 169 142 168
0000e0 ca ab 72 ba a8 9c cf cd 75 ce 9c 6e 9b d1 c5 bf
       202 171 114 186 168 156 207 205 117 206 156 110 155 209 197 191
0000f0 a9 74 a5 90 76 d1 a3 ac 9c 73 8c cf a0 ae 89 c6
       169 116 165 144 118 209 163 172 156 115 140 207 160 174 137 198

block4.2.weight_quantized u1 [64, 64, 3, 3]
000000 4d 4b 4b 51 54 55 51 54 4c 53 51 4e 52 4c 4d 55
       77 75 75 81 84 85 81 84 76 83 81 78 82 76 77 85
000010 4f 57 52 55 50 52 55 53 55 52 51 4c 57 4e 51 57
       79 87 82 85 80 82 85 83 85 82 81 76 87 78 81 87
000020 56 51 57 56 4d 4b 55 56 50 55 52 55 55 54 4a 4d
       86 81 87 86 77 75 85 86 80 85 82 85 85 84 74 77
000030 4f 53 4f 50 55 4c 4c 4f 56 4c 53 53 52 51 4d 51
       79 83 79 80 85 76 76 79 86 76 83 83 82 81 77 81
000040 50 4e 4c 54 54 54 56 52 4a 4c 4d 4d 4f 4f 4e 50
       80 78 76 84 84 84 86 82 74 76 77 77 79 79 78 80
000050 50 51 55 52 50 4f 52 54 50 4f 52 52 50 4d 4e 4e
       80 81 85 82 80 79 82 84 80 79 82 82 80 77 78 78
000060 55 4e 4c 56 52 56 50 55 52 4d 51 4f 51 52 53 4e
       85 78 76 86 82 86 80 85 82 77 81 79 81 82 83 78
000070 4d 52 56 57 4c 54 50 56 4c 52 4d 58 4d 50 55 4b
       77 82 86 87 76 84 80 86 76 82 77 88 77 80 85 75
000080 4a 54 4c 51 4c 51 55 4d 56 51 50 4f 51 52 56 50
       74 84 76 81 76 81 85 77 86 81 80 79 81 82 86 80
000090 4e 45 51 4b 4e 52 50 48 49 54 51 51 4e 4b 4b 51
       78 69 81 75 78 82 80 72 73 84 81 81 78 75 75 81
0000a0 4f 56 4d 4d 4f 4b 53 52 54 51 4e 55 53 4c 54 55
       79 86 77 77 79 75 83 82 84 81 78 85 83 76 84 85
0000b0 4c 4e 4d 4f 56 54 55 55 52 4f 55 50 53 53 4e 54
       76 78 77 79 86 84 85 85 82 79 85 80 83 83 78 84
0000c0 52 56 57 4f 4f 57 4f 4c 52 55 55 4f 53 50 52 4e
       82 86 87 79 79 87 79 76 82 85 85 79 83 80 82 78
0000d0 55 4c 54 4f 4f 4e 56 4b 5a 4d 4d 55 4e 55 4f 51
       85 76 84 79 79 78 86 75 90 77 77 85 78 85 79 81
0000e0 53 52 4d 50 57 53 58 4f 54 4c 4e 4c 51 4e 4d 55
       83 82 77 80 87 83 88 79 84 76 78 76 81 78 77 85
0000f0 56 51 4d 53 4d 4f 55 4e 56 50 51 52 50 53 51 50
       86 81 77 83 77 79 85 78 86 80 81 82 80 83 81 80

conv_final.weight_quantized u1 [1, 64, 3, 3]
000000 44 a0 8c b6 1b bd bc 9b 2d 72 3d aa 67 30 d7 b6
       68 160 140 182 27 189 188 155 45 114 61 170 103 48 215 182
000010 29 ac 81 b9 cb 97 3e 95 94 48 1e ad f2 79 26 8a
       41 172 129 185 203 151 62 149 148 72 30 173 242 121 38 138
000020 45 27 b3 a5 e9 5f 5a 56 83 26 b1 9a 92 3a 5b 3e
       69 39 179 165 233 95 90 86 131 38 177 154 146 58 91 62
000030 91 b6 8e 63 ae a1 a8 91 43 d6 28 8a 98 53 9f 5c
       145 182 142 99 174 161 168 145 67 214 40 138 152 83 159 92
000040 62 13 53 dd 84 73 ff 85 c6 34 19 9e d1 48 af c3
       98 19 83 221 132 115 255 133 198 52 25 158 209 72 175 195
000050 56 c3 36 4a ba ca 8d b4 43 29 9c 9a 1c a1 c4 1e
       86 195 54 74 186 202 141 180 67 41 156 154 28 161 196 30
000060 94 bb 42 93 c7 c2 d9 8f 73 37 45 a7 2e a6 41 de
       148 187 66 147 199 194 217 143 115 55 69 167 46 166 65 222
000070 85 c5 45 46 c3 a7 df 4c 46 c4 c4 59 ea 30 46 31
       133 197 69 70 195 167 223 76 70 196 196 89 234 48 70 49
000080 b7 be 09 b7 b6 2b f5 30 ec e4 2d 9d 53 91 9e 33
       183 190 9 183 182 43 245 48 236 228 45 157 83 145 158 51
000090 9a d5 5a 28 18 33 ec b8 b1 ce 27 7c d7 65 48 be
       154 213 90 40 24 51 236 184 177 206 39 124 215 101 72 190
0000a0 c3 4a 85 69 49 a0 bb 4c 99 de 36 ab a2 89 ab 5e
       195 74 133 105 73 160 187 76 153 222 54 171 162 137 171 94
0000b0 75 8a 3f 66 28 b2 ab 90 6a bd cf 4b 42 e0 9c 43
       117 138 63 102 40 178 171 144 106 189 207 75 66 224 156 67
0000c0 84 62 75 4b 74 c4 cf 42 85 40 ca b6 40 82 cc d2
       132 98 117 75 116 196 207 66 133 64 202 182 64 130 204 210
0000d0 9f ac 74 cc ba d3 49 d3 6e ff 32 5e 9a 4c 63 4b
       159 172 116 204 186 211 73 211 110 255 50 94 154 76 99 75
0000e0 63 7c 4f 5c d3 c1 e2 50 75 2d 5e b4 96 40 df b8
       99 124 79 92 211 193 226 80 117 45 94 180 150 64 223 184
0000f0 4a 37 60 f0 4d d1 4c 4d 89 71 4b 36 ad 90 9e be
       74 55 96 240 77 209 76 77 137 113 75 54 173 144 158 190
