resnet_model.onnx (onnx, 597626 bytes, 11 tensors)

conv1.weight f4 [64, 1, 3, 3]
000000 09 ca 2e 3e f6 6c 0a 3e 4b 91 90 be f9 af 35 be
       0.17069258 0.13518128 -0.2823585 -0.1774291
000010 0d 6b 39 be f4 49 02 bd 2f 9a 53 3e e2 b3 fb bd
       -0.18107243 -0.03180881 0.20664285 -0.12290169
000020 63 d5 1e be 68 35 a4 3e 15 eb 10 be 98 6e 41 be
       -0.15511088 0.32071996 -0.14152177 -0.18889844
000030 b9 cd 30 3d 8a 98 18 be 17 3e 0f be 0e 5c 8f be
       0.043164942 -0.14901939 -0.13988529 -0.2799992
000040 43 de 03 be d8 b0 b3 3e 83 49 c4 3d d0 a2 fe bd
       -0.12877755 0.3509586 0.09584334 -0.12433398
000050 5e 23 a8 3c 00 ed 48 be 33 7e ec 3d d1 cd d0 3d
       0.020524677 -0.19621658 0.11547508 0.10195506
000060 39 0a e6 3d e5 c4 49 3e 3c 30 c8 be 87 ee 9f 3e
       0.112324186 0.19704016 -0.390993 0.3123667
000070 42 51 6f 3c 79 87 6c 3e 35 8e 4a 3c bf a3 99 be
       0.014606776 0.23098554 0.012363006 -0.3000774
000080 73 24 df 3c 8a e2 2a be b0 42 3a be 6d c1 24 be
       0.02723906 -0.1668798 -0.18189502 -0.16089411
000090 59 80 50 3e df 24 21 be 34 c8 76 be df 52 ac be
       0.20361461 -0.15736721 -0.24099809 -0.33656976
0000a0 65 2c 06 3e 48 02 72 3e 3d 90 9d be d2 3f b1 bd
       0.13102873 0.23633683 -0.30774108 -0.08654751
0000b0 cd 4d 53 3e c5 8f db 3d c7 9e d4 bd dc b8 68 be
       0.20635147 0.10720781 -0.10381847 -0.22726768
0000c0 3d 5f f7 3c 23 b7 98 bd 04 62 14 3d 75 63 bd bd
       0.03019678 -0.074568056 0.036226287 -0.092474855
0000d0 91 68 0b 3e 66 bf 16 3d 6f 46 40 bd 8a fc e4 3d
       0.13614108 0.036803626 -0.04694217 0.111809805
0000e0 5c af 50 be a0 22 c4 bd df 96 9e 3d 28 d5 a0 3d
       -0.20379394 -0.09576917 0.0774362 0.07853156
0000f0 55 c7 46 bd 37 b0 73 be 58 48 ae 3e 1d a3 0b be
       -0.04852994 -0.2379769 0.3403957 -0.13636442
000100 61 cd b8 3d 52 53 3b be 7d ff 98 3d 34 64 06 3e
       0.09023548 -0.18293503 0.074706055 0.13124162
000110 fa 57 1c 3e af 13 2e be c4 fc 32 be 0f d9 c5 3d
       0.15267935 -0.16999696 -0.17479235 0.09660541
000120 4b a2 15 3d 6d d0 1c be bb ff 9f be b6 03 2d bd
       0.036531728 -0.15313883 -0.31249794 -0.042239867
000130 a1 1a 31 3e 47 c0 ec 3c df 79 2e 3e c2 81 35 be
       0.17295314 0.028900279 0.17038678 -0.1772528
000140 91 78 bb 3d 21 6b 86 3d 31 50 3f be fc ed 7b 3c
       0.091538556 0.06563402 -0.18682934 0.015376564
000150 ce 97 96 3e 39 b9 9d be 7c a6 18 3e 26 97 61 be
       0.29412693 -0.30805376 0.14907259 -0.22030315
000160 0b 7a c3 3d 2e 49 e0 3c 95 0a be bd ac 67 59 be
       0.09544762 0.027378645 -0.09279362 -0.21230954
000170 bf 4b 5f 3e 38 5e 62 3e a0 a6 8e be 86 4f 65 be
       0.21806239 0.22106254 -0.278615 -0.22393617
000180 91 a4 4c 3e 01 fa f2 bc 42 28 41 be e3 6e bb 3c
       0.19984652 -0.029660227 -0.18863013 0.022880023
000190 e2 9d 86 be fb 62 c7 3e 8e 05 17 bd 34 b2 3d be
       -0.2629233 0.38942704 -0.03687053 -0.1852501
0001a0 1f a4 f6 bd 47 f7 00 3d b3 e5 78 be 76 99 62 3e
       -0.12043022 0.031485822 -0.24306373 0.22128853
0001b0 aa a1 22 3c a0 0b a1 bd 9c 0a 67 bd 0b 16 94 3c
       0.009926239 -0.078635454 -0.056406602 0.018076917
0001c0 91 24 91 be 23 d4 f6 3c 57 b7 b0 3e 33 98 e7 3d
       -0.2834821 0.030130452 0.34514877 0.113083266
0001d0 9e 3e 5e be 5d 09 56 3d 8c 69 8c be 73 88 7f 3e
       -0.21703574 0.052255023 -0.27424276 0.24954395
0001e0 03 14 5c 3c 32 2d 90 3e 8a ab ca be 10 3e 80 3e
       0.013432506 0.2815948 -0.39584 0.2504735
0001f0 f1 3a f9 3c 15 0c 90 bb bf ab 2a 3c 9e 10 77 bc
       0.030423613 -0.0043959715 0.010416924 -0.015079645
000200 cb 5a 1e bd 27 0f 22 be eb 70 8d 3e d6 bf cf 3d
       -0.038660806 -0.15826093 0.27625212 0.10144012
000210 59 95 23 be 08 54 ac be 51 ae 1f 3e a9 a3 01 3e
       -0.1597494 -0.3365786 0.1559384 0.12660088
000220 b5 49 19 bd ee b9 4c 3e 91 0c 99 be 8f d8 88 be
       -0.037423808 0.19992802 -0.298924 -0.2672772
000230 93 4c c0 3d 02 8c 2b 3e 17 c8 f1 3c 89 8c 87 bd
       0.093896054 0.16752627 0.029514356 -0.06618602
000240 ef 8b 77 3e fb 72 7d be f7 dd f4 bd 59 98 8d be
       0.24174474 -0.24750893 -0.11956399 -0.27655295
000250 72 62 c7 3e a1 da 8b 3d ca 30 22 3d 62 a2 1e 3d
       0.38942295 0.068288095 0.03959731 0.03872908
000260 ac 11 43 be e5 48 66 bd 7c 52 67 3d fd 8a 83 bc
       -0.1904971 -0.05622186 0.056475148 -0.016057486
000270 88 b3 f4 bd a2 4d 35 3e 7d eb 1b 3e 69 74 c1 be
       -0.11948305 0.17705396 0.1522655 -0.37784126
000280 8b f3 70 3e 52 db 16 be fb 4e af be 19 aa 07 be
       0.23530404 -0.14732102 -0.34239945 -0.13248481
000290 99 47 86 be fe 0c 33 be df ad 81 3e 2c 05 9b 3d
       -0.262265 -0.17485425 0.25327966 0.07569346
0002a0 10 68 fa bd 44 4e 1c 3e 91 dd 97 3e 68 97 11 bd
       -0.122268796 0.15264231 0.2966123 -0.035544783
0002b0 94 d3 91 3e 86 7c 5b be 61 ba 1e bc 68 fa 8e be
       0.28481734 -0.2143422 -0.009687991 -0.2792542
0002c0 5e 16 60 be e4 5c 41 bd 58 87 88 bc 69 86 ea 3d
       -0.21883532 -0.047207728 -0.0166661 0.11451418
0002d0 45 91 66 3d 99 36 6b be 4e e1 37 be b8 76 ae bc
       0.056290884 -0.22970046 -0.1795704 -0.021296844
0002e0 7a c5 4d 3e 20 c9 bf bd 7c 09 8a bd cd a2 26 3e
       0.20094863 -0.093645334 -0.0674009 0.16273041
0002f0 94 1c 30 be bf 9d 00 be 7f d2 5f 3e 4e 69 95 be
       -0.17198402 -0.12560175 0.21857642 -0.29181904
000300 b7 1a 42 3e 9b 14 77 bd 72 40 6a 3c 04 f6 22 3d
       0.18955503 -0.060322385 0.0142975915 0.0397854
000310 d2 a8 94 be 95 f2 6f 3e c4 98 bd bd d2 9f 6c 3e
       -0.2903505 0.23432381 -0.09257653 0.23107842
000320 59 d4 a8 be df f8 61 be 74 db b6 bd b5 22 dc 3d
       -0.32974508 -0.22067593 -0.08928576 0.10748807
000330 af 9c 00 3e 17 0a 7b 3d 52 80 6a 3d 0e 60 8c be
       0.1255977 0.06128892 0.057251282 -0.27417034
000340 ea e1 00 be 85 61 b2 3c 49 44 24 bd f9 1c 1f 3e
       -0.1258618 0.021775017 -0.040104184 0.15538396
000350 bc 6f c2 3a ca 41 d4 bc 95 5c 87 3e 4c 7e f3 bd
       0.0014834325 -0.025910277 0.26437822 -0.118893236
000360 68 93 b3 3d cc a2 d4 bd 9d 8c 9f 3e 98 11 2b 3e
       0.0876835 -0.103826135 0.31161967 0.1670593
000370 14 eb e8 3d 35 49 7d be 8e a2 84 3d 3e 43 b7 be
       0.113729626 -0.24734958 0.06476317 -0.3579349
000380 00 71 ad bd 6d 5d 4f 3e e7 80 8c 3d 29 9c bf 3d
       -0.08468819 0.20250483 0.06860524 0.09355957
000390 27 5e 7a be b4 3c c1 3d 9a 1f 3a be 53 2e e5 bd
       -0.24449979 0.09435406 -0.18176118 -0.11190476
0003a0 da 4d b0 bc b4 a6 0b be 0a 07 1c be 50 70 38 be
       -0.021521498 -0.13637811 -0.1523706 -0.18011594
0003b0 66 24 5c 3e 29 4c 93 be 8b b9 1f be 35 5c 6a be
       0.2149826 -0.28769043 -0.15598123 -0.22886737
0003c0 0b ae 0c 3e 0e 64 9b 3e bb 6a 97 3e 0a 78 40 3e
       0.13738267 0.30349773 0.29573616 0.18795791
0003d0 5e f2 32 bc b2 c8 a2 be 03 0e 59 3d 02 86 80 3c
       -0.010922043 -0.31793743 0.05299188 0.0156889
0003e0 e4 a4 11 3e 3c 00 a0 be df 8f 54 3e 34 ea 0e be
       0.14223057 -0.3125018 0.20758007 -0.13956529
0003f0 d9 e5 c5 3e 64 ce 39 3e a0 c4 78 be 05 48 53 3e
       0.38651922 0.18145138 -0.24293756 0.20632942

conv1.bias f4 [64]
000000 04 c9 bf 3f 08 50 5d 3f 72 27 47 3e 71 dd dd be
       1.498322 0.86450243 0.19448641 -0.4333301
000010 3a 8a d6 be d4 ee 05 be 8b 7b 86 3f 18 98 83 3e
       -0.41902333 -0.13079387 1.0506452 0.25701976
000020 92 bb e5 bd 99 f5 27 3f 4e a0 22 be 2c aa 44 be
       -0.11217417 0.6560913 -0.15881464 -0.1920554
000030 d4 2c 01 3d 8f 80 95 3f 12 a8 91 bc fb 01 5c bd
       0.031536892 1.1679858 -0.017780337 -0.053712826
000040 97 59 c8 3f 3d bb b9 3e 6e a7 01 3e da e7 5e 3f
       1.5652341 0.36275664 0.12661526 0.8707253
000050 aa cb ce be cf 41 e1 3e 28 55 8d 3f 74 b2 a9 3e
       -0.40389758 0.4399552 1.1041613 0.3314396
000060 67 de a6 be 6f 56 3b bf 29 bc 82 bf 9d 49 a2 3e
       -0.32591555 -0.7317876 -1.0213672 0.31696787
000070 a6 8f 65 bf 4e bc ca bd bb 94 57 bf d7 72 f7 3d
       -0.89672315 -0.098991975 -0.8421132 0.12082451
000080 35 a8 6c 3f bc 05 a2 bf af d8 19 3e e9 48 74 3f
       0.92444164 -1.2658 0.15024064 0.9542375
000090 62 33 47 3f 6e 06 ab bf 34 8a 7f 3f 29 7a df be
       0.7781278 -1.3361337 0.99820256 -0.43647888
0000a0 5e 55 0f 3f cc 62 43 3e 34 ee e9 be a6 d5 71 3f
       0.55989635 0.19080657 -0.45689547 0.94466627
0000b0 b3 39 8a be ce 2f 96 3e b3 b3 15 3b 3e a6 56 3e
       -0.26997146 0.29333347 0.0022842705 0.20961854
0000c0 74 5b 32 3f f2 35 83 bf 40 12 8f 3f 68 b3 b7 3f
       0.69670796 -1.0250838 1.1177444 1.4351625
0000d0 03 b6 8f be ac 4b 46 be 06 c4 29 bf 94 59 e1 be
       -0.2806855 -0.19364804 -0.66314733 -0.44013655
0000e0 6b 9f e0 3e 5e e6 bd be b3 d4 39 3d 6d 46 71 3f
       0.43871626 -0.3708982 0.04536886 0.94248086
0000f0 a9 ff 01 3f f9 a5 b6 be 7f d0 37 3f 1d ea 2e 3f
       0.5078073 -0.35673502 0.71802515 0.6832598

conv2.weight f4 [64, 64, 3, 3]
000000 ac b1 bf bd 8d 2f 71 bc d8 e2 a5 bd 00 c9 7e bd
       -0.0936006 -0.01472081 -0.08099908 -0.062203407
000010 eb 3c 96 bd 21 8a 86 bd 03 07 03 be 98 cc 99 bd
       -0.07335838 -0.06569315 -0.12795644 -0.07509726
000020 2f f8 7c bd 73 e9 f3 3d 97 6e 5a 3e fd 40 3d be
       -0.061760124 0.11909761 0.21331249 -0.18481822
000030 88 ee 90 3d bd 73 1c 3d d3 cf 33 bb 5a d4 57 bd
       0.07076746 0.038196314 -0.0027437105 -0.05269275
000040 6e ba f8 bd d2 36 ea 3d 04 56 92 3d da 78 0c 3c
       -0.12144934 0.114362374 0.071453124 0.008573735
000050 8e da 67 bd db 6c 5c 3d ef 53 50 bd 87 75 2c bd
       -0.056604914 0.05381475 -0.050861295 -0.04210427
000060 49 b5 18 3c a1 06 d7 bd 07 91 00 3d e2 fb 6f bd
       0.0093205655 -0.10499311 0.03138831 -0.058589824
000070 3e c8 d7 bd 9e 8c c4 bd 50 b8 4b 3c ea 7c 1d be
       -0.1053624 -0.09597133 0.01243408 -0.15379682
000080 ae 8b 0c be 8d 41 9d 3b be c4 54 be 4f 14 09 bd
       -0.13725159 0.004799074 -0.20778176 -0.033466633
000090 86 0a 6c ba 64 00 81 3d 8d c8 30 be 1e fd f5 3c
       -0.00090042537 0.06298903 -0.17264004 0.030027922
0000a0 3b 34 6c 3d 78 ab fa bd bf 4b 4b bd fb 2a f9 bd
       0.057667 -0.12239736 -0.049632784 -0.12166401
0000b0 87 4f 43 bd c4 f0 a3 bc 1a c9 40 3e b0 87 33 3d
       -0.047683265 -0.020012267 0.18826714 0.043830574
0000c0 70 66 46 3d 36 e5 36 bc 47 93 83 3d 9e 4a 5a 3d
       0.048437536 -0.011163047 0.06424575 0.053293817
0000d0 e0 5f 61 bd 17 47 b6 3d 7a 47 c9 bc 3a bf 00 be
       -0.055023074 0.08900278 -0.024570215 -0.12572947
0000e0 ed 27 4a bd 23 73 3b bd d3 1e 5e bd a2 00 ef bc
       -0.049354482 -0.0457641 -0.054228615 -0.029175106
0000f0 44 64 9f bd 51 53 39 bd 58 68 7b 3d 8e cc 93 bd
       -0.07782796 -0.045245472 0.061378807 -0.0721675
000100 fb aa 2b bd 69 c6 2a bd 4e 70 40 bd e0 ff bf bd
       -0.041911107 -0.041693125 -0.046982102 -0.09374976
000110 5e 48 cc bc ed 95 e0 bc 3e 92 8e bd 0b 74 08 be
       -0.024936851 -0.02741524 -0.06961487 -0.13325517
000120 7a d4 2d bd dc d4 e8 bc 42 99 8f bc a5 8d ea bc
       -0.04243896 -0.028421812 -0.017529134 -0.028631995
000130 ec ea 82 bd 5c 88 93 bc 8f 97 2a bd b3 85 6a 3c
       -0.06392464 -0.018009357 -0.041648444 0.014314103
000140 d2 b0 b3 ba ef b5 3e be ef dc fc bc c1 fe 9e 3c
       -0.0013709313 -0.1862409 -0.030867068 0.019408586
000150 e8 66 fb ba 6c 53 b9 3d d8 8e 4c 3d 22 b4 26 3d
       -0.0019180449 0.090491146 0.049940914 0.04069913
000160 84 8f 34 3d e5 34 c7 3d 98 7f 01 be 62 1c 9a bd
       0.04408218 0.09726886 -0.1264633 -0.07524945
000170 38 91 2e bd 6f 1d 3f be 88 9c 01 be 3f bf 99 bd
       -0.04261896 -0.18663572 -0.12657368 -0.075071804
000180 4e 9b b6 bd 07 ce 6b bd 25 a4 3c 3c a3 48 4f bd
       -0.08916341 -0.05756953 0.0115137445 -0.05060638
000190 db 4f 41 bb 20 5c 43 3d 41 37 03 3e 54 ab d4 3b
       -0.002949706 0.04769528 0.12814046 0.0064901505
0001a0 43 63 e1 3c b8 eb 24 3e b1 ee 1d 3e fe 80 dc 3c
       0.027513152 0.16105545 0.15423085 0.026916977
0001b0 5c 12 57 be c7 11 b6 bd 48 a3 ae bc 2e 9b 92 bd
       -0.21003097 -0.088901095 -0.021318093 -0.071585044
0001c0 3c 12 96 bd 2b e6 3e 3c 6c 32 fb bd a9 cb c2 bc
       -0.07327697 0.011651556 -0.122654766 -0.023778753
0001d0 07 42 aa 3d 73 f6 d5 3d bb 9a 8b 3d 04 ed 14 be
       0.08313375 0.10447397 0.06816622 -0.1454354
0001e0 34 19 95 3d fb 42 63 3d 64 ed c4 bd 9a e2 9a bd
       0.07280198 0.0554838 -0.09615591 -0.07562752
0001f0 ed 79 1a bd 64 fe 97 bd cd a1 38 3d c7 cc a7 3d
       -0.037713934 -0.07421568 0.04507618 0.08193355
000200 8e ab b3 bd 86 69 39 bc a0 84 91 3d da d5 00 bd
       -0.08772956 -0.011316663 0.07105374 -0.031453945
000210 5e 2d 9a 3c f2 c1 62 bd 53 0c 0c bd d1 a4 b3 bd
       0.01882046 -0.055360742 -0.03419144 -0.087716706
000220 77 88 ae bd cd 78 76 bd 6b bc 23 bd 08 17 9f 3c
       -0.08522122 -0.0601738 -0.03997461 0.019420162
000230 87 d5 1e 3d 1f 8c c7 bd 7f 49 ba 3b 14 08 30 bd
       0.038777854 -0.09743523 0.005685031 -0.042976454
000240 31 85 19 3e 55 3a 63 bd 3e a4 ab bd 78 d5 0c 3e
       0.14992215 -0.05547555 -0.08380936 0.13753307
000250 99 34 02 be d5 b7 d7 bd 88 11 9d 3d 23 a2 a4 bd
       -0.12715377 -0.1053311 0.076693594 -0.080387376
000260 b8 3c 4a 3c a5 73 90 bd 80 68 a4 bc 50 92 15 be
       0.012343578 -0.070533074 -0.02006936 -0.14606595
000270 6a 46 d4 bd 56 f4 d2 3b c8 45 ee bd 12 87 16 be
       -0.10364993 0.0064378185 -0.116344035 -0.14699963
000280 55 a0 0b be ea 99 14 be fb 14 a3 39 50 1f 8d 3c
       -0.1363538 -0.14511839 0.00031105414 0.017226845
000290 8e 6d 4f bd 55 d4 be bc 05 65 03 3b ea 1b 68 bc
       -0.05064159 -0.023294607 0.0020049226 -0.0141668115
0002a0 1a 16 7f bd d0 6c 84 bd 0d 31 c7 bd 45 38 62 3b
       -0.062276937 -0.06466067 -0.097261526 0.0034518403
0002b0 c1 2d 02 3d 0e 15 24 be df e6 79 ba 0a 83 06 be
       0.031781916 -0.16023657 -0.00095329987 -0.13135925
0002c0 3f a3 49 bd e6 8b 3e be d7 e5 fc 3d 6c a1 2e 3c
       -0.04922795 -0.18608055 0.12348526 0.010658603
0002d0 db 84 45 bd 79 fe 09 bd 5f 6d f2 bc 87 4c f4 bd
       -0.048222404 -0.03368995 -0.029593168 -0.11928659
0002e0 b4 48 c9 bb e7 c0 62 bc 2d 5e c3 bc cf 75 b5 bd
       -0.0061427 -0.013839937 -0.023848617 -0.08860361
0002f0 db ce 1c bd 3a dd 8f 3d ae d9 d9 3d 5b 3e 8a bd
       -0.03828321 0.070246175 0.10637222 -0.067501746
000300 49 15 31 3d 10 4e 0b 3e bc bd 1b 3d 59 e0 79 bd
       0.04323319 0.13603997 0.03802274 -0.06100497
000310 0f 6b 66 3d 24 b3 ac 3c 28 34 ce 3c 1a ae 4a bd
       0.056254443 0.021081515 0.025171354 -0.049482442
000320 93 ee d1 bc 59 17 39 3d 8e 63 a3 bd 1f b5 a4 bc
       -0.025626456 0.04518828 -0.07977973 -0.020105897
000330 f7 5d 4a 3d c9 64 8b bd c0 4c 94 3c fc 8c 2a bd
       0.049406018 -0.068063326 0.018103004 -0.04163836
000340 e4 0f 8f bd 9a f7 28 bc 61 1a 0e bc 52 d2 06 3d
       -0.06985453 -0.010312939 -0.008673281 0.03291542
000350 3b 34 0e bd f2 12 a6 bc b3 41 ff 3c 95 38 26 bd
       -0.03471778 -0.020272706 0.031159258 -0.040581305
000360 e8 7f c3 3d 92 58 fa 3d ed f9 f5 3c 18 ea 4a 3b
       0.095458806 0.12223925 0.0300264 0.0030962285
000370 45 4c 62 3d e9 44 4c bc 82 e7 71 bc 94 87 be bc
       0.055248518 -0.012467601 -0.014764668 -0.023258008
000380 3b 86 95 bd a0 51 1e 3d 04 06 b9 3c b6 27 20 bd
       -0.07300993 0.038652062 0.022585876 -0.03910037
000390 2f a5 80 3d ae 74 07 ba b8 39 e3 bc a6 64 da 3d
       0.06281506 -0.0005167228 -0.027737483 0.106637284
0003a0 7e f7 8b 3b a3 48 27 3c 09 cb e3 bd 87 2e f0 bd
       0.0042714467 0.010210189 -0.1112271 -0.117276244
0003b0 1d f5 be 3d 3f 3d 07 bd c2 cd bb bd f7 90 c4 bd
       0.093240954 -0.033017393 -0.091701046 -0.09597962
0003c0 89 a4 4d 3c 5a 7b a3 3b 4b 3d 15 be 30 8c 20 bd
       0.012551435 0.00498907 -0.14574163 -0.039196193
0003d0 08 de c8 bc 43 64 eb bc 91 b1 9c bd 82 6f 83 bd
       -0.024519935 -0.028734332 -0.076510556 -0.06417753
0003e0 36 ba 92 3b 4d 00 5d 3d 1d 52 6e bb 9a fd 84 3c
       0.0044777645 0.053955365 -0.0036364861 0.016234208
0003f0 d3 77 a2 3c 27 34 22 be 9d 70 8c bc 58 ad 69 bd
       0.019832527 -0.15840207 -0.017143542 -0.05705008

conv2.bias f4 [64]
000000 6e d5 72 3e b2 61 9e bd de 49 08 3e f1 a8 b2 3e
       0.2371423 -0.07733478 0.13309428 0.34894517
000010 31 2e ce 3f 1a d9 02 3f 1f f6 1a 3f ec 90 d5 3d
       1.6107846 0.5111252 0.605318 0.10428032
000020 c3 10 76 3e 05 25 a6 bd 9b d7 22 3c 9f cd bf be
       0.24029832 -0.0811253 0.0099391 -0.37461564
000030 05 b4 b7 3f 25 54 c2 be 55 79 b9 bf f5 82 82 3f
       1.4351813 -0.37954822 -1.4490153 1.0196215
000040 be 3d df be 23 27 8f 3e 9b a3 8e 3e 69 03 ef be
       -0.43601793 0.27959546 0.27859196 -0.4668229
000050 14 52 ab 3e 83 25 3b 3f 60 7e 22 3f 43 7a de 3e
       0.33461058 0.73104113 0.6347408 0.43452653
000060 ce 71 83 3d 33 ba cc 3d 85 71 c6 bf 72 9d eb 3e
       0.06418191 0.09996452 -1.5503393 0.4601856
000070 8c 3a a0 3d f2 21 12 3e 85 ea 3b 3f c2 8e 32 bf
       0.07823667 0.14270762 0.73404723 -0.6974908
000080 ac 90 00 3d e0 a0 a3 3f 4f 1d 31 bf fb 6d 97 3e
       0.03138797 1.278347 -0.69185346 0.29576096
000090 0b 8e 56 3f 95 98 67 3e 5e 41 05 be ed 73 72 3f
       0.8381049 0.22616799 -0.13013217 0.9470814
0000a0 f5 a1 43 3e dd 6f 75 bf 2f 06 36 3f 52 d6 f0 3d
       0.1910475 -0.95873815 0.71103185 0.11759628
0000b0 89 f6 fc 3f 37 59 b9 3f 4c 81 8b 3f b0 92 b9 bf
       1.9762737 1.4480351 1.0898833 -1.449789
0000c0 cf 3c 07 3f 8f 39 78 bd 99 ab 0e 3e 18 e5 3d 3f
       0.5282716 -0.060601767 0.13932647 0.74177694
0000d0 0f 9e 34 3d 11 6d 13 be 3d c3 91 3f 3c 15 ad bf
       0.04409605 -0.14397074 1.1387707 -1.3522105
0000e0 e4 fd 83 3e 2e 2f 59 3f f2 f7 99 bf 92 60 9c 3e
       0.2577964 0.84837615 -1.2028792 0.30542427
0000f0 e7 e6 8d be 8d 9a 83 bf c3 10 4f 3e 96 8a c2 3d
       -0.27715227 -1.028154 0.20221238 0.094990894

conv3.weight f4 [64, 64, 3, 3]
000000 a4 1e 06 3e 10 a2 10 3e 8f b4 fa 3d 3e e3 de 3d
       0.13097626 0.14124322 0.1224147 0.10883187
000010 c4 3e 96 3d e5 05 f9 3d f4 65 06 3e a9 60 b8 3d
       0.0733619 0.121593274 0.1312483 0.090028115
000020 56 00 40 3e 8c 0d 36 bb e4 de 1e bc cb 10 85 bc
       0.18750128 -0.002777907 -0.009696696 -0.01624336
000030 b7 c7 d5 bc 7f e7 79 bd a8 c1 c7 ba 64 b7 4a bc
       -0.026096208 -0.061011788 -0.0015240209 -0.012372825
000040 31 e2 1e bd 33 38 9a bc 22 fb b5 bd eb 97 b6 bd
       -0.03878993 -0.018825626 -0.088857904 -0.08915695
000050 e9 f4 17 bd 2a a7 ab bd b7 75 27 bd 9e d3 2f bd
       -0.0370988 -0.083814934 -0.040883746 -0.042926423
000060 31 1d b5 bd 3a 99 9f bd 1b 1e 96 bd 5b 92 6e 3c
       -0.088434584 -0.077928975 -0.07329961 0.014561261
000070 2d 33 67 3c 15 3b cf 3c 37 c2 a0 3c b9 fd e6 3c
       0.014111322 0.025296727 0.019623859 0.028197156
000080 f0 fc 33 3d bc 24 51 3d 22 67 ce bb 62 e5 8b 3c
       0.043942392 0.051060423 -0.0062989155 0.017077152
000090 f9 c4 19 bb 47 f6 e4 bd 16 5f ae bd e7 07 31 3d
       -0.0023463352 -0.11179786 -0.0851423 0.043220427
0000a0 fd 86 f4 bd b7 a8 c3 bd fe 55 ac bc b9 21 5a be
       -0.119398095 -0.09553664 -0.021037098 -0.21301927
0000b0 86 e9 4e bd 33 05 87 bd a8 b5 74 bd 79 e0 9b bd
       -0.050515674 -0.065927885 -0.059743553 -0.07611174
0000c0 ec b9 4f bd 7b 49 c5 bd f9 9e 54 bd 9a 7f 80 bd
       -0.05071442 -0.09633156 -0.05190942 -0.06274338
0000d0 4e 81 07 bd e2 df f6 bb 9a 2c 1d 3d 84 0b b4 3b
       -0.0330823 -0.007534013 0.038372613 0.005494537
0000e0 f2 b0 21 3d 99 0a 9d 3c 95 6e c7 bc c9 ac 70 bc
       0.03947539 0.019170092 -0.024344722 -0.014689633
0000f0 61 97 90 3c d0 74 d5 3c 59 b4 f7 bc f1 9d 67 bd
       0.017650308 0.026056677 -0.030237364 -0.05654711
000100 15 d5 d5 bb 19 9d cd 3c 78 ff ae 3c 0c ea 4c 3c
       -0.0065256455 0.025099324 0.021362051 0.012506973
000110 6d fd d8 3c c4 f8 d9 bb 93 42 28 bd 01 a2 4f bb
       0.02648803 -0.0066519696 -0.041079115 -0.0031682255
000120 9c 87 64 3b f4 7d 65 3b 5e 98 8b 3c aa 1d 27 3d
       0.0034870869 0.00350177 0.017040428 0.040799774
000130 71 ee 8b 3c 7d f7 8b 3c a9 34 19 3d e8 b0 6d 3c
       0.017081471 0.017085785 0.037403736 0.01450751
000140 61 17 00 bd 7e d8 19 bd c3 d2 ea 3a 47 fb 9e bb
       -0.031272296 -0.03755998 0.0017915595 -0.004851732
000150 68 0d ee 3c 63 5f a1 3c 56 0d 34 bd af 28 27 bd
       0.029059127 0.019698804 -0.04395803 -0.040810283
000160 b5 9b f0 3c 16 a2 5f bd d5 d0 e4 3c 55 c5 1d bc
       0.029371122 -0.054597937 0.02793161 -0.009629567
000170 44 d3 85 bc f9 c9 67 3d f1 85 a7 bc 82 e1 6f 3c
       -0.01633609 0.0565891 -0.02044961 0.014641168
000180 7a 32 09 bb b2 d9 06 3c c0 45 4c bc 49 a6 dc bb
       -0.0020934627 0.008230614 -0.012467802 -0.00673369
000190 74 93 20 bd a0 f2 43 bd fd 86 67 3b 43 97 54 bc
       -0.039203122 -0.047838807 0.0035328262 -0.012975517
0001a0 64 8e 36 3c 5f 19 1d bd c3 61 a4 bc fe 1e 87 bc
       0.011142347 -0.038354274 -0.020066148 -0.01649427
0001b0 a9 05 01 be eb 53 15 be 6f c1 b7 bd f9 e6 e7 bd
       -0.12599815 -0.14582793 -0.089724414 -0.113233514
0001c0 ae b4 03 be 5c 31 f8 bc bb da f7 bd 5f 9e 3f be
       -0.12861893 -0.030296974 -0.121022664 -0.18712758
0001d0 5c f9 08 be 87 52 ce bc e7 1c 17 bd 35 7a 89 bc
       -0.13376373 -0.025185836 -0.036892798 -0.016781906
0001e0 0b 01 ca 3b df 94 6e bd 7d e6 4d bd ca 00 70 bd
       0.006164675 -0.058247443 -0.05026864 -0.058594503
0001f0 de 07 67 bb ec 4c 45 bd 76 cd 20 bc 6b d4 4c bd
       -0.0035252492 -0.04816906 -0.009814611 -0.050007265
000200 11 db 19 3e 79 3b 02 bd 53 b6 b8 bc 42 e5 60 3d
       0.15024973 -0.031795 -0.022547876 0.054906137
000210 62 1a 5b bd 84 98 11 bc 70 cb 50 bc 0f f1 10 bc
       -0.053491957 -0.00888646 -0.012743816 -0.008846535
000220 15 a5 09 3d e7 de be bc e7 cb a7 3b 7d 48 98 3d
       0.0336047 -0.023299647 0.0051207426 0.07435701
000230 32 81 94 bb 3c ad 0d 3e 0a 1f f5 3a ff dd 0b bd
       -0.004532003 0.13835615 0.0018701267 -0.03414726
000240 28 4a 36 bd 4c b6 97 bd 35 13 16 bd bd fd 96 3b
       -0.044504315 -0.07407817 -0.03663941 0.0046078847
000250 72 32 a7 bc 9c ef 8b bd 55 0e 3f bd 17 70 10 bd
       -0.020409796 -0.06832811 -0.046644527 -0.035263147
000260 99 4c a1 bb 65 b1 f5 3c 3f 2a 33 bc 64 b6 ca 39
       -0.004922461 0.029991815 -0.010935365 0.00038664334
000270 a0 f5 17 bd 9e 0a cc 3c 6e 7c f8 bc b5 44 f4 bc
       -0.03709948 0.024907406 -0.03033277 -0.029817918
000280 51 e5 31 bd 2d 80 2d bd 53 36 95 bd f6 e5 0c bd
       -0.043431584 -0.042358566 -0.07285752 -0.034398995
000290 a4 d3 eb bd 5d 95 cd bd 97 49 c4 bd 24 ae a3 bd
       -0.115149766 -0.100382544 -0.09584349 -0.07992199
0002a0 8f b2 ae bd a0 5e ca bc 72 41 5a bd ce 68 87 bd
       -0.08530151 -0.024703324 -0.05328507 -0.06611787
0002b0 2e f8 43 bc 5e 32 32 bd d4 f5 d9 3b ef 65 c9 3c
       -0.011961026 -0.043505065 0.0066516194 0.024584739
0002c0 23 f7 54 3c 47 92 7e bc f6 c7 ed bc cc bf 81 bd
       0.012998375 -0.015537805 -0.029026013 -0.063354105
0002d0 bc ae b7 bc 71 6b 2b bb 46 b2 31 bd 5e 0d 22 3c
       -0.022422187 -0.002615657 -0.043382905 0.009890882
0002e0 28 4c 01 3d a1 7b ac 3a a1 c2 d8 bc c0 24 f9 bb
       0.03156677 0.0013159403 -0.026459994 -0.007603258
0002f0 1a 5c e4 bc 9a 04 0d 39 f4 8c 9e 3c 54 3f eb 3b
       -0.027875949 0.00013448522 0.019354321 0.00717918
000300 5c 16 34 3d c0 6b 41 3c ac fa 7e 3b 8f 2e 00 bd
       0.043966636 0.011805475 0.0038906736 -0.0312944
000310 f3 e9 40 3d c0 9c 18 3d 80 19 02 bd c5 cf 4b bc
       0.04709811 0.037258863 -0.0317626 -0.012439673
000320 65 42 9f 3c 43 38 da bc 0a 37 ac 3c 5f 61 91 bc
       0.019440839 -0.026638156 0.021022338 -0.017746625
000330 92 63 7f bc 74 e7 11 3c 10 82 4e bd 15 bb 73 3d
       -0.015587704 0.00890528 -0.050417006 0.059504587
000340 51 23 ba bc 75 95 43 3c dd c8 78 3d c2 6e 68 3d
       -0.022721918 0.011937489 0.060738433 0.056746252
000350 44 a7 6a 3d f5 71 7b 3d 29 f8 3b 3a 3e ee 2a bc
       0.057288423 0.061387975 0.00071704626 -0.010432778
000360 b4 aa 31 3c 52 25 90 3b 7d 1c 44 3c 14 e5 bc bc
       0.010843921 0.00439898 0.011969683 -0.023058452
000370 75 89 09 bc 4c 48 07 bd 44 38 aa 3c ec 5d ac b9
       -0.008394589 -0.033027932 0.020778783 -0.00032876374
000380 50 dd 8b 3c 6b 0b 35 3d 00 29 fc 3b 24 a6 b4 bc
       0.017073303 0.044200342 0.0076953173 -0.022051878
000390 e7 93 a4 3c 85 9f 1a bd 4f 53 e4 3c 63 78 ca 3b
       0.020090057 -0.037749786 0.027871756 0.006178902
0003a0 96 b6 a4 bb 0e 99 05 bc 0b c4 1a bc 74 d4 69 bd
       -0.0050266488 -0.008154167 -0.009446154 -0.057087377
0003b0 4b 14 72 3d 9a ec 88 bd c0 10 76 bd 39 72 12 bd
       0.059101384 -0.06685753 -0.060074568 -0.035753462
0003c0 52 7a e1 bc 64 3c d4 bd 4b dd 3c be 5c 56 f6 bc
       -0.027524147 -0.10363081 -0.18443792 -0.030070476
0003d0 54 a4 56 3c 2a 5c c6 3c 7c a7 01 bd 00 50 6c 3c
       0.013100702 0.02421387 -0.031653866 0.01442337
0003e0 3f d5 09 3c 35 6c 4d 3c 25 c8 1b bd b1 97 c9 bc
       0.008412658 0.012538006 -0.03803267 -0.024608465
0003f0 b1 e5 a4 bc d8 fb 5f bc 8e 0d 5c bd 31 92 04 bb
       -0.020129057 -0.013670884 -0.053723864 -0.0020228738

conv3.bias f4 [64]
000000 b8 ff de bd 1e 57 51 3f c3 77 0b 3e 23 6e 96 bd
       -0.10888618 0.81773555 0.13619904 -0.07345226
000010 fd de cd 3f 49 f4 7e 3e 12 04 97 3e c2 dd 02 3f
       1.6083676 0.24897875 0.29495293 0.51119626
000020 cd 08 af 3f bb 3f ad 3f 56 f8 62 3f 4d 94 6c 3f
       1.3674561 1.3535074 0.8866018 0.9241379
000030 4e 80 8a bd 20 c6 80 3f 1e e4 be 3e c2 12 ff bc
       -0.067627534 1.0060463 0.37283415 -0.031136874
000040 13 3a 9b bf fd 18 0e 3e 03 7c 99 3e a8 9d eb 3f
       -1.2127098 0.1387672 0.29977426 1.8407488
000050 48 3b af 3f c8 3b df 3d fb 09 b1 3e 7a 1e 1e bf
       1.3689966 0.10900074 0.34577927 -0.61765254
000060 ae 74 20 3e b1 61 47 bc d4 ed b6 bd ad 48 4d 3f
       0.1566951 -0.012169288 -0.08932081 0.8018902
000070 5f 50 c7 3f 28 aa 0d 40 20 4d 02 40 3c 3d ef bb
       1.5571402 2.2135105 2.0359573 -0.007301001
000080 83 ad a8 3f 01 21 2a bf e6 18 07 3e f1 88 b1 3c
       1.3177952 -0.6645661 0.13193092 0.021671744
000090 bd 48 6d 3e e0 5d aa 3f f1 38 53 3f c2 ac c0 3f
       0.23172279 1.3309898 0.8250876 1.5052722
0000a0 a6 e6 1f 3e 6b 30 4d be 77 bc b3 3b f9 48 00 be
       0.15615329 -0.20038001 0.0054851132 -0.12527837
0000b0 c0 8e b3 3e 3a 28 bb 3e 4e c6 35 3f b9 37 01 40
       0.35069847 0.36554128 0.71005714 2.019026
0000c0 28 ec 10 bf 41 3c 1e bf 52 6c 8f bd 99 4e 30 bf
       -0.56610346 -0.6181069 -0.07003082 -0.6886993
0000d0 2f 4b 46 be d4 de c0 be de d0 c7 3f 68 0b 1b 40
       -0.19364618 -0.37670004 1.5610616 2.4225712
0000e0 3c b7 b2 be dc dd da be be f0 d9 3d 21 86 52 3f
       -0.34905422 -0.4274739 0.10641621 0.82235914
0000f0 dd 4c 3b 3f d0 78 b1 be f4 12 80 be 67 d1 0a 40
       0.7316416 -0.34662485 -0.2501446 2.169031

conv4.weight f4 [64, 64, 3, 3]
000000 43 2a 20 3c 32 de f0 bc 2b cc da 3b 9e d4 2d 3c
       0.009775701 -0.029402826 0.0066771707 0.010609774
000010 ff ef 25 bd 2e c6 3f 3c e9 3d ff 3c a7 9f ba bc
       -0.04051208 0.011704965 0.03115745 -0.022781206
000020 73 b6 54 ba 22 55 16 3c 51 8b 2f 3d 90 3c 29 3c
       -0.0008114345 0.009175571 0.04285747 0.010329381
000030 43 5f f6 bc 1c b1 8c 3b d7 45 14 3d dd 2d 84 bd
       -0.030074721 0.004293574 0.036199417 -0.0645406
000040 d8 ee d4 bc 0d 33 7c bd 4d 4e 18 bc 77 c4 16 3d
       -0.025992796 -0.061572123 -0.009296012 0.036808457
000050 85 0e f8 3c 69 dc 03 3d cd 9b 84 bc 48 13 f2 3c
       0.030280361 0.03219262 -0.016187573 0.02955021
000060 67 fa b1 3c 94 45 ba bc ed b2 da bc 99 a0 e2 3c
       0.021725846 -0.022738256 -0.026696647 0.02766447
000070 8e 83 c6 3b 76 f5 19 bd a4 35 42 bd 72 b8 48 3b
       0.006058163 -0.037587605 -0.047414437 0.0030627516
000080 1e f2 0f bc a8 29 c5 3c 3f 2d 01 bc 7c 34 3a ba
       -0.008785753 0.024067715 -0.007884323 -0.00071031577
000090 17 d1 ff bc 1a 56 b9 3c e5 75 32 bc 13 54 8e bc
       -0.031227631 0.022624064 -0.010892366 -0.017374074
0000a0 84 af e4 39 43 d0 99 3c 50 5e ba bc 6a e7 15 bb
       0.00043618318 0.018776065 -0.02275005 -0.002287353
0000b0 44 b2 6d 3c 6c fc 36 3d d8 0a 18 3e 7f c3 c8 3d
       0.014507834 0.044674322 0.14847887 0.09802913
0000c0 78 6e 0f bc e7 20 af 3d af 57 c1 3d 30 88 0d 3d
       -0.008754365 0.085511975 0.094405524 0.034553707
0000d0 17 6f 3c 3d e2 e2 99 3d 25 cc 03 3c db d2 5d bb
       0.04600438 0.075139776 0.008044277 -0.0033847603
0000e0 f9 6e 31 bc 65 24 87 3d 2f 33 d0 bc ce cf 03 3c
       -0.010829681 0.065987386 -0.025415031 0.00804515
0000f0 c7 5e 86 3b 93 30 9c 3d af 1e 2e bc e2 39 e3 bc
       0.004100654 0.07626452 -0.010627433 -0.027737562
000100 e0 44 d8 3c 25 2d b4 bc 5c 86 47 3d 9b cc 16 3d
       0.02640003 -0.021994183 0.04871212 0.03681622
000110 23 3c 48 3d 82 d0 82 3b 14 af 3d 3d 71 47 37 3b
       0.048885476 0.003992141 0.046309546 0.0027966166
000120 f1 a5 5e bd 0f 1f 87 bd cf 39 91 3c 57 56 6e bd
       -0.054357473 -0.06597721 0.01772776 -0.05818781
000130 94 10 9e bc df 65 d3 3c 16 32 30 bd ec 81 4b bd
       -0.019295014 0.025805412 -0.043016516 -0.04968445
000140 8a 98 4c bc 34 6d 59 3d 9c a2 4f 3d 3e 0f df 3b
       -0.01248754 0.05308266 0.050692186 0.006807237
000150 59 80 90 3d 8b ba 1a 3d 78 30 ef 3c 17 90 f2 3c
       0.070557304 0.037775557 0.029197916 0.029609723
000160 63 fa 8e 3d d8 d6 58 bb 6a a1 3c bc da 88 19 3d
       0.06981351 -0.0033087041 -0.0115130935 0.037484027
000170 af 93 68 3c 0a ee c7 3c d7 17 a7 3c da 0c 0d 3c
       0.014195367 0.024405498 0.02039711 0.008609021
000180 1f db 94 3c 6d 21 a8 3c 20 ab a5 3c 03 c1 87 3c
       0.018170891 0.020523751 0.0202232 0.016571527
000190 a5 fc 43 3d c7 b9 c8 3c e1 6a d4 3c be 41 c2 3c
       0.047848362 0.024502648 0.02592987 0.023712989
0001a0 2b 6a 3e bc ad e6 92 bc c0 87 6e 3d 9d 0b 31 bb
       -0.011621992 -0.01793226 0.05823493 -0.0027014979
0001b0 24 4b 71 ba 99 84 1d bd a5 01 57 bc 18 64 d7 3b
       -0.0009204617 -0.038456533 -0.013122951 0.0065732114
0001c0 37 41 05 bd e1 2e f8 3c c3 07 e1 3b a4 2c 0f bc
       -0.032532897 0.030295791 0.0068673803 -0.0087386705
0001d0 d3 7a 31 bd eb 1e 4d bd e1 2b b9 3b 40 fe d3 bc
       -0.043330025 -0.050078314 0.0056509827 -0.025878072
0001e0 77 1b 90 bd 7a f7 12 bc cf db 20 bc 7c 9a 41 bd
       -0.070364885 -0.008970136 -0.009818031 -0.04726647
0001f0 3f b6 31 3c da ae 45 bd 82 23 a7 3c 3c bf 5f 3d
       0.0108466735 -0.048262455 0.020402674 0.054625735
000200 09 d1 aa 3d 2e 8c 61 3d 37 1c 7e 3d 7d ac cc 3d
       0.083406515 0.055065326 0.062038627 0.09993837
000210 2c 88 93 3d e2 5e 22 3d bc 3a e2 bc d9 0a b3 3c
       0.07203707 0.03964127 -0.027615897 0.021855759
000220 d4 35 0d 3d af ea 15 3d 58 e9 f4 bc 14 5f a8 bc
       0.034475163 0.036600765 -0.029896423 -0.02055315
000230 66 d6 74 bb 0b e6 e0 3c 09 48 f3 bc da 3a c5 3c
       -0.0037359237 0.027453443 -0.029697435 0.024075914
000240 ff cb 69 3d da 11 1d bc 8c d8 94 bc 24 8e 22 3d
       0.05707931 -0.009586776 -0.018169664 0.039686337
000250 07 7f 18 bc 29 a2 e1 bc 04 37 b4 b9 e2 a9 e0 39
       -0.009307629 -0.027543144 -0.00034373265 0.00042851182
000260 63 84 fb bb 9a b2 64 3d 8b 2a 69 3d 6f e7 df 3c
       -0.007675694 0.05583439 0.056925338 0.027332036
000270 bd 2a 38 bb 38 53 85 bc 79 b5 06 3d c4 d7 95 bc
       -0.0028101646 -0.016275033 0.03288791 -0.018291362
000280 ae 8c 30 3d 7f 76 4b bc 89 a5 69 be ec c4 72 bd
       0.043102913 -0.012418388 -0.22817053 -0.05926983
000290 09 2f 3c bd cf 1f 68 be 6f 89 15 be 24 5a c1 3b
       -0.045943294 -0.22668384 -0.14603208 0.005900638
0002a0 fe 61 63 be 50 6c 5e be f8 e2 05 be 82 c6 0e 3d
       -0.2220535 -0.21721005 -0.13074863 0.03485728
0002b0 2b 31 86 3d 28 48 04 bc 15 1f 85 3d 6e 97 ae 3a
       0.06552347 -0.008073844 0.06500069 0.0013320276
0002c0 2f fe 70 bc 1e 35 d8 3c 4c 9f 8b bb 64 58 5f 3c
       -0.01470904 0.026392516 -0.004260933 0.013631914
0002d0 6f 90 33 3d 79 aa 96 3d 77 b5 c3 bc 27 f7 b9 3d
       0.043838914 0.07356734 -0.02389024 0.09080344
0002e0 6f 7f da bc 0c 9b b8 bc 62 c7 85 3c f8 ef 42 bb
       -0.026672093 -0.02253487 0.016330425 -0.0029745083
0002f0 76 cf d0 3c 8a b1 29 bd 72 fe c3 3a 97 de 28 3b
       0.02548955 -0.04142908 0.001495315 0.002576744
000300 f9 91 fb bc d9 1b 94 3c ad c2 24 3d f1 7e 05 3d
       -0.030709254 0.018079685 0.04022472 0.032591764
000310 1b 91 58 bc 7b 99 31 bc 3e 9a e1 bd b2 cb 27 be
       -0.01321819 -0.010839815 -0.110157475 -0.16386297
000320 14 4e 97 bd 02 e8 19 be 04 78 25 be 07 6d 90 bd
       -0.07387939 -0.1502991 -0.16159064 -0.07052045
000330 a4 0a cd bd ae 83 d6 bc 20 84 c8 bd 38 a7 b6 3b
       -0.10011795 -0.026185837 -0.09790826 0.0055741332
000340 25 d0 ba bc d0 f4 94 bc 77 fb 58 bc 02 68 43 3d
       -0.02280433 -0.018183142 -0.013243548 0.04770661
000350 4e 6a 3b bc e2 b1 b8 3c c5 b1 aa 3c f9 e2 51 bc
       -0.011438919 0.022545759 0.02083672 -0.012810462
000360 62 2a 4a bc d3 d8 6a 3d 35 00 f9 3a b8 a5 c0 3c
       -0.012339206 0.057335686 0.0018997254 0.02351652
000370 be a3 45 bc 82 a4 04 3a 40 7e 45 3c 95 d3 a1 bc
       -0.012062965 0.0005059914 0.012054026 -0.01975421
000380 b6 d8 3a 3c 9f b8 7f 3d 44 c2 4b bd e7 fe e7 bc
       0.011404207 0.062431928 -0.049745813 -0.02831979
000390 a8 3e a6 bd 48 4a 94 bd 9b 43 9a bd b2 89 c6 3d
       -0.081174195 -0.072407305 -0.07532426 0.09694232
0003a0 41 9c 29 3d bb 65 41 3d 0b 7e d1 3c e4 48 96 3c
       0.04140878 0.04721616 0.025572797 0.018345304
0003b0 9e e6 a3 3c 5f 1d e2 bc 6f cb 8d 3d 91 a6 91 3d
       0.020007428 -0.027601896 0.069235675 0.07111848
0003c0 58 98 56 3b f1 06 30 bc 3d f5 7f 3c e3 7a b6 bd
       0.0032744613 -0.010743842 0.015622434 -0.089101575
0003d0 45 e8 95 bd a2 1e de 3c 32 f6 00 be 2d 42 ea 3b
       -0.073196925 0.027114216 -0.12593916 0.007149002
0003e0 c3 5c 23 bb 81 aa 97 bd cb 08 4c bd 55 c0 62 bd
       -0.0024927116 -0.07405568 -0.049813073 -0.055359203
0003f0 4e c3 ff 3c 00 ea bd 3d 6d 71 ae 3d 71 d7 5f bc
       0.031221058 0.092731476 0.08517728 -0.013662205

conv4.bias f4 [64]
000000 57 14 e9 be a1 ce a1 3f 76 4f 0a 40 de 95 c0 be
       -0.4552333 1.2641183 2.1611 -0.3761434
000010 04 7e b9 3e 62 ed d8 3c ba 18 18 3e 02 41 78 3e
       0.36228955 0.02648038 0.14853182 0.24243549
000020 71 ce 8b 3e 34 e9 d3 be 2e 97 91 3f e2 22 38 3f
       0.2730594 -0.41388857 1.1374261 0.71928227
000030 c6 45 5f 3f fc 1d c0 be 5e 7c 82 3f 26 d0 07 40
       0.8721584 -0.37522876 1.0194204 2.1220794
000040 e3 e2 04 3b 97 6a 18 3f bf 25 ff 3f 07 17 00 3d
       0.0020276837 0.59537643 1.9933394 0.03127196
000050 4c cc 3d 3e 1a 67 9f 3e 33 89 11 3d e7 7f 4a be
       0.18534964 0.31133348 0.035531234 -0.19775353
000060 a7 97 07 3f 56 3e 61 3e 22 78 c2 3f 7a b6 f4 3f
       0.5296578 0.21996436 1.5192912 1.9118187
000070 84 82 0f 3e 02 74 56 be 9a a6 09 3f 4e f9 b6 bc
       0.14014632 -0.20942691 0.5376984 -0.022335675
000080 43 bd 7f 3d 72 bf 2e bf 0d 21 33 3f 3d cd 04 40
       0.062436353 -0.6826087 0.69972306 2.0750268
000090 5f 49 93 bf 59 8c 7e 3f c6 e7 9c 3e e2 8f 08 3f
       -1.1506766 0.99432904 0.3064558 0.5334455
0000a0 80 49 f3 3e 79 4e 9f 3c 3a e3 ae 3f f2 27 38 3e
       0.47517014 0.019446598 1.3663094 0.17983988
0000b0 32 95 c3 3f 17 ee cf 3d 0b 79 ba 3e a6 f2 90 be
       1.5279906 0.10152834 0.36420473 -0.28310126
0000c0 2a 65 9d 3f 72 b2 f4 3f f0 52 09 40 3b 9b 1b 40
       1.2296498 1.9116957 2.145687 2.4313495
0000d0 16 5c bd 3f 83 b2 9c be 45 7d f3 3f 60 d5 87 3f
       1.4793727 -0.30604944 1.9022604 1.0611992
0000e0 a6 63 39 3d fe c3 09 bf ea 9c e9 3f 77 04 e7 3d
       0.045261048 -0.53814685 1.8251011 0.112801485
0000f0 6f 82 06 bf ce 4a d3 be 7b 6a ac 3e 0d 99 7c 3e
       -0.52542776 -0.4126801 0.33674988 0.24667759

conv5.weight f4 [64, 64, 3, 3]
000000 70 ff a3 bb ec bd 06 bd c1 7b f6 bc c3 a9 68 bd
       -0.0050048158 -0.032895967 -0.030088307 -0.056802522
000010 f7 d5 84 bd 88 f2 33 bd 9c e9 a0 3b 09 3e 1e bd
       -0.06486123 -0.043932468 0.004910661 -0.03863338
000020 41 17 8b bd 88 2b 2b bc f3 af a0 3c 82 01 15 bd
       -0.06791545 -0.01044739 0.01961515 -0.03637839
000030 29 d9 33 3d f9 d1 8a 3c 2b 32 3b bd 6a 9c 00 3d
       0.043908272 0.016945826 -0.04570214 0.031399168
000040 94 80 b3 bc 93 5b e4 3b e0 be 06 bd 11 f9 a2 bb
       -0.021911897 0.0069689243 -0.032896876 -0.0049735387
000050 e9 70 48 bb 61 15 97 3d 58 e1 19 3d 32 db 0c 3c
       -0.0030584878 0.073771246 0.03756842 0.008597182
000060 98 3b 9b 3d 1f 4d 7d bb 32 85 48 3d ae 26 1e bd
       0.07579726 -0.0038650704 0.04895515 -0.038611107
000070 3d e4 67 bd ac a7 15 bd 0c 20 7e 3c 61 44 da bc
       -0.05661415 -0.036536857 0.01551057 -0.026643934
000080 35 1a 5b 3d c1 75 14 bd b9 0c f6 3c 61 ad 89 bb
       0.05349179 -0.03624511 0.030035364 -0.0042015766
000090 e4 96 1f 3d 50 fb db 3c 27 f6 02 3c ed d3 42 bc
       0.03896226 0.026853234 0.007993258 -0.011891347
0000a0 8c 72 f7 bc 38 ce 90 bc 29 d8 42 bd 8f eb 8b bc
       -0.030205987 -0.017676458 -0.047569428 -0.017080097
0000b0 86 6a c3 bc f1 cf 62 bd cf 58 43 bd fa 09 f6 bb
       -0.023854505 -0.05537409 -0.047692116 -0.0075085135
0000c0 ce b9 65 bd 8e 97 1c bd 2e bf 86 bb 85 07 74 bc
       -0.0560854 -0.03823047 -0.004112146 -0.014894371
0000d0 60 3c fa 3b a4 1d 21 bd dc f7 fd 3c 94 da 26 3c
       0.007636592 -0.039334908 0.031001978 0.010183949
0000e0 b6 71 e0 bb a2 51 60 3d 0a dc 21 bd 2c 38 75 bb
       -0.006849493 0.05476535 -0.039516486 -0.0037417514
0000f0 d3 02 b6 3c da d8 be 3c 54 02 18 3d fa 5d 68 3c
       0.022218144 0.023296762 0.037111595 0.014182562
000100 74 05 b2 3c 96 e4 db bb 5b b4 30 bd b8 0d 22 3c
       0.021731116 -0.006710599 -0.04314075 0.009890966
000110 38 91 91 3c 82 c2 2e bd 00 8a 12 bd 67 b2 cf bc
       0.017769441 -0.042665966 -0.03577614 -0.025353624
000120 4e ee 02 3d b2 1f e4 3c 7f 28 35 3d 40 d9 a2 3d
       0.031965546 0.027847145 0.044228073 0.079515934
000130 65 45 08 3d 80 1e b0 3c d1 dc 9d 3c 28 b8 25 3d
       0.033269305 0.021498919 0.019270333 0.04045883
000140 0c 7c 2e 3d 50 5f d3 3a ef 09 ba bc 70 3c b8 3a
       0.04259877 0.0016126428 -0.022709815 0.0014056098
000150 21 36 2d bd 56 3a 3a bb a0 59 56 bd b8 06 0b bd
       -0.04228795 -0.0028416119 -0.052331567 -0.033941954
000160 bd 27 b3 bc ea a8 cf bc d9 19 8d 3d e4 72 2e 3d
       -0.021869535 -0.0253491 0.06889696 0.042590037
000170 a4 06 47 3d cf 07 7f 3d 6f ad 97 3d 57 ea ef 3c
       0.048590317 0.062263306 0.07406127 0.029286547
000180 45 77 41 3c b4 a3 8e bd 46 3d 18 3d 88 57 ab bc
       0.011808221 -0.06964818 0.03716781 -0.020915762
000190 cd 26 81 bd 1d 3d 57 3c d4 32 f1 bb 14 81 2d 3c
       -0.06306229 0.013137129 -0.0073607955 0.010589857
0001a0 e5 76 59 bd bc 7c 1d 3d d3 56 db bb 39 c6 7c bd
       -0.053091902 0.038449034 -0.0066937 -0.061712477
0001b0 e2 00 31 be a2 16 a0 bd 98 a4 d0 bd d3 d4 d7 bd
       -0.17285493 -0.07816817 -0.10187644 -0.1053864
0001c0 af 71 8f bd e6 d9 03 be 58 39 4f bd a2 df 0a be
       -0.07004105 -0.1287609 -0.050591797 -0.13561872
0001d0 f9 7b 3d bd 87 25 48 3b f5 7b ad 3c 97 8e 5b bc
       -0.046260808 0.0030539946 0.021177271 -0.013400695
0001e0 44 e3 30 bd b8 2c 09 bd 50 e2 a9 bc 07 04 99 bd
       -0.043185487 -0.033489913 -0.020737797 -0.07471471
0001f0 47 78 68 bd 53 31 0f bc a7 25 0a bd 72 04 4f 3d
       -0.05675533 -0.008739787 -0.033727314 0.05054135
000200 33 b7 aa 3c cf e2 e7 3c 7d 37 f4 3c 01 7a 94 bd
       0.02083931 0.028306393 0.029811615 -0.07249833
000210 2b 8e 03 3d 38 ee 89 bc 22 bf 0a bd 03 05 48 3c
       0.032118004 -0.016837224 -0.033873685 0.012208226
000220 8a e9 8a bc b0 11 26 bc d1 95 07 3d 5c b4 4b 3d
       -0.016957063 -0.010136053 0.03310186 0.04973255
000230 4d c5 55 3c 14 e6 8c bb 8f b3 6e 3d 88 e3 93 bb
       0.013047528 -0.0042998884 0.05827671 -0.004513208
000240 49 4c cd bc 97 d0 db 3c 57 d4 34 ba 76 bb 8d bc
       -0.02506079 0.026832862 -0.0006898096 -0.017301302
000250 67 ff 30 bd b0 b0 11 3c 98 2e a6 bd ce a7 59 bd
       -0.04321232 0.008892223 -0.08114356 -0.053138547
000260 53 c1 85 bc 54 a9 34 bd b8 d3 a3 bc ec 7f 0a bd
       -0.016327536 -0.044106796 -0.019998416 -0.033813402
000270 0e 49 3f 3b b9 bb a3 3c dd 07 47 3c 0a b4 a6 bc
       0.002918783 0.019986974 0.012147871 -0.020349521
000280 ce ed c0 bc 55 c0 60 bd 4f ad 08 bc 7c 3a 89 bc
       -0.023550894 -0.054870922 -0.008342101 -0.01675152
000290 bf 9e 9b bc 2b cb 24 bc 6c 89 14 bd e5 a3 1f 3d
       -0.018996594 -0.010058205 -0.03626387 0.03897466
0002a0 e0 81 0e bd da bb 14 bd 42 3c 50 bd 61 b9 1b bd
       -0.034791827 -0.03631196 -0.050838716 -0.038018588
0002b0 99 af 35 bc 6e 36 7f bc 67 f5 35 3d ed f3 30 bd
       -0.011089229 -0.015576942 0.044423487 -0.043201376
0002c0 43 2f 8e 3c b3 34 36 3c d5 d3 5f ba 5b 81 07 bd
       0.01735652 0.011120963 -0.00085383403 -0.033082347
0002d0 0c 99 0f 3d 54 ba 88 bc c1 d4 72 bb 0a 60 f4 3b
       0.035058066 -0.01669041 -0.003705308 0.007457738
0002e0 7b 8b 71 bc 6a f5 97 bc 5c 11 a8 bc 6f 6f e2 3c
       -0.014742727 -0.01854964 -0.02051609 0.027641026
0002f0 05 b1 51 bc 39 d9 82 3b 49 ce 34 bc 04 dc 87 3b
       -0.012798552 0.00399318 -0.01103551 0.004146101
000300 d3 c3 c1 3d b3 49 25 bd 3e ff 0b bd 6c 4c 7d 3d
       0.09461179 -0.04035349 -0.034178965 0.06184046
000310 f5 8b f0 bc 95 94 80 bc 6a b0 52 3c 92 1e 51 bc
       -0.029363612 -0.01569585 0.012859443 -0.012763636
000320 e6 0c c3 3c 5e e8 3f 3c f1 ac 2f 3d a2 72 b9 3b
       0.023809861 0.0117131155 0.04288954 0.0056594172
000330 26 f4 e4 bb 05 6b 27 3c db 54 4c 3d 3f ff 33 bd
       -0.0069871126 0.010218387 0.049885612 -0.043944594
000340 10 ef d6 bb 42 ed b2 bc ef 42 48 bd 24 96 98 bd
       -0.00655926 -0.021841649 -0.048891958 -0.07450512
000350 e3 a0 f1 bc 41 dd 47 bd 2f 08 45 bd 26 6c cc bc
       -0.029495662 -0.04879499 -0.048103508 -0.024953913
000360 74 f6 eb 3c 43 eb 10 bd 8c de 92 bc 43 34 0a bd
       0.028804041 -0.035380613 -0.017928384 -0.033741247
000370 35 c9 0b 3d b5 32 81 bc 81 40 07 3c 23 a2 b6 3c
       0.034127433 -0.01577125 0.008255125 0.02229411
000380 e8 0f ad 3c 3f c9 a6 3c 05 c2 4d 3d 9f cb a0 39
       0.021125749 0.020359633 0.05023386 0.00030669288
000390 d2 c8 04 3c a3 1d c9 bc 69 12 5f 3d a0 72 00 bd
       0.00810452 -0.024550265 0.054460917 -0.031359315
0003a0 90 94 b7 3c 81 0c 3e bd 2e 2b 61 bd 12 f4 4f bc
       0.022409707 -0.046398643 -0.05497282 -0.012692468
0003b0 55 f3 02 bd 7b e1 7b 3d d9 36 99 3d 9c 9e 89 bc
       -0.03197034 0.06149433 0.074811645 -0.016799264
0003c0 1c 5d 0c 3d 1e fd 02 bd 41 3d ae bd 61 80 be 3c
       0.034268484 -0.031979673 -0.08507777 0.023254575
0003d0 52 fa ab bc 85 76 54 bb 37 78 7b bd 83 39 5d bd
       -0.020993385 -0.0032419276 -0.061393943 -0.054009926
0003e0 fd 52 5f 3c af a3 16 bc 30 45 ba 3c da 26 cc bd
       0.013630626 -0.009194299 0.02273807 -0.09968348
0003f0 17 15 1e 3d cf 75 ff 3c da 78 85 3c c7 5a 29 3d
       0.03859433 0.031184105 0.016292978 0.041346338

conv5.bias f4 [64]
000000 a9 c8 d3 3f 2e 8b 14 3f d8 e1 b4 3f 80 0a d3 bc
       1.6545612 0.5802487 1.4131422 -0.025761843
000010 8a fc 7b 3f 74 8f b4 3f a2 0a af 3e 1c 83 e0 3e
       0.9843222 1.4106278 0.341878 0.4385003
000020 4e 0c bf 3f bc 08 55 3e 4d 9c 8e bc b6 5b a8 3e
       1.492563 0.20804113 -0.017408514 0.3288247
000030 ef 8f 08 40 f4 d8 ab 3f d5 a0 c1 3f 73 26 ff 3f
       2.133785 1.3425584 1.5127207 1.9933609
000040 6b 4f dd 3f d3 f3 00 40 61 64 b9 3f 33 b5 ae 3f
       1.7289861 2.0148818 1.4483758 1.3649048
000050 b7 16 b7 3e c7 dc 98 3f 50 10 9e 3f c0 de 4d 3f
       0.35759518 1.1942376 1.2348728 0.80418015
000060 5a 66 1f 3e 85 57 d4 3f 65 d0 d9 3f 54 a8 af 3f
       0.15566388 1.6589209 1.7016722 1.3723245
000070 da 5f 35 3f 03 fc 86 3f 65 f4 08 3f bc f8 78 3f
       0.7084938 1.0545658 0.53497916 0.9725454
000080 b2 b4 3b 3f c3 e0 0b 40 8d e5 a4 3f 8e e3 a2 3e
       0.73322594 2.1855934 1.2882553 0.31814235
000090 57 5e 67 3e 2e ce 67 3f e1 48 d0 3f d1 40 85 3f
       0.22594582 0.9054898 1.6272241 1.0410405
0000a0 d5 9c 0e 3f 36 a7 43 3e 75 9b a8 3f a3 79 98 3f
       0.55708057 0.19106755 1.3172442 1.191212
0000b0 66 89 7d 3c 73 12 82 3f e9 af 16 40 e5 7c 04 3f
       0.015474653 1.016188 2.3544867 0.51753074
0000c0 ad f9 62 3f 14 66 b8 3f 45 5d 10 3e b3 5a bd 3e
       0.88662225 1.4406152 0.1409808 0.3698326
0000d0 47 1a bd 3e a0 8b c0 3d e8 90 93 3f 2e 12 8d 3f
       0.3693411 0.09401631 1.1528597 1.1021173
0000e0 dd 61 a7 3f 13 10 b7 3f 15 a3 17 3f ea 3e 0f 3f
       1.307674 1.430178 0.5923322 0.55955374
0000f0 50 7e 4d 3f 2d 7a 9c 3f 48 92 96 3d ac 4c ca 3f
       0.8027086 1.2224785 0.0735212 1.5804648
