resnet_model_pruned.onnx (onnx, 598181 bytes, 11 tensors)

conv1.weight f4 [64, 1, 3, 3]
00000000: 3058 3a3e 03ea 253e 17c4 cebe 04ca 0e3e
00000010: 4dd6 7f3e 71b0 403e 552b dd3c 6239 ebbe
00000020: 9519 87bd 01c9 483e c261 08bd f5fc d4bd
00000030: ea7d 39be 76b0 203e 2b0e 97be b5c8 60be
00000040: 7c77 b63d 0936 00be 42a0 f6bd b5b8 d9bd
00000050: 34f8 953e 0a5a ce3d fb75 8ebe 20c2 233e
00000060: 49f0 d43d ff53 a3be 94ac b1bc 4af0 34be
00000070: 95e7 933e 6e87 d8bd 72df e8bc 8e28 bd3c
00000080: 07c2 4abd ff45 93bd ba0b 783c baad c2bd
00000090: c2df f2bd b162 453d 0b9f b43e dc9c 35be
000000a0: 7f26 97be e2bc 833d 0ca6 85bd 22c3 56be
000000b0: 557a 6abd 90df 483e d06e 403e 8568 13be
000000c0: cf3e debe 6d86 e6bd fd71 93ba 899a 833d
000000d0: d1c5 853e 3651 9bbd 4744 1f3e d772 a3be
000000e0: f0af 9dbe 8b40 cd3c 52aa 22be f74b 8fbe
000000f0: 1cd2 9b3e ee66 fe3d dce9 a03e 8eae 5ebe
00000100: 3a71 9e3e 302d b0bc efc4 8ebd d7cb c9be
00000110: 901b b3be f524 aa3e 7533 e8bd 1cf5 dabe
00000120: 3f85 b9bd 5e9f 2dbe dac5 433e 6962 b93d
00000130: 9c52 84be 4bb1 7dbe 50db a03d afb5 9d3d
00000140: 3d76 373e a804 253d 6418 963e 5100 803e
00000150: 58ae 31be fabb dc3c f046 263e 53fb 6abe
00000160: de07 a8be ad42 dcbc 39f2 e3bc 615e 8f3d
00000170: 1c95 823e 381b 8fbd 598f 5c3d 7fda afbd
00000180: 092d 52bd f80c 293d f535 6ebe 0563 d73d
00000190: 141b bebe 0cf7 763e 9fa3 823e 46b2 e13c
000001a0: 75aa 60be 7a25 a03e 6030 19bc 8e81 abbe
000001b0: 81ea 8c3e 17f0 8cbe a0de fc3c bd3e 93be
000001c0: f9b7 48bd 953e 08be ef25 463e d6e0 f93d
000001d0: 4921 c7bd f95d 06bd 2b4e f9bd 792c 80bd
000001e0: 99f4 e73b 7be9 92be 0d03 cd3e d23b 4dbe
000001f0: 9afd dabd 8eb0 c03e d746 07be 94d9 7ebe
00000200: 2b79 5c3e 501b 403e 641c 7a3e e59c 81be
00000210: 2e70 97bd 91f0 05bd ad24 0cbe 961a b4be
00000220: 6380 7cbe c24d 983e a461 2c3d c529 d03c
00000230: 5555 673e c965 8abe 6cc5 053e 1586 7f3e
00000240: eadc 6ebe 0ec0 813d d9a8 f03d 3e72 02be
00000250: 48ad 5c3e 007e 4e3e 6acb a7bc 00ff a3be
00000260: 65d7 c13d d84e 4ebe 48a5 a33e b6f2 08be
00000270: 2a51 50bd db93 bebd 49a5 abba 3045 43bd
00000280: 1450 b23e 1e4c 27be abf2 a73d 887f 733e
00000290: 8783 a7be 7062 263e 090e d23d dbc7 e93c
000002a0: 7262 73be 68b1 f63d 6c2f cebe 446b 1f3e
000002b0: f16e eebd 7bfa 503e 8cb0 b5be 70a9 ab3d
000002c0: 9435 af3d 39eb fa3d a38a 083e 9097 a5be
000002d0: 8624 f53d b1a5 b9bd a613 013d 581a 9d3e
000002e0: 65d2 6fbe 0afd a13b 8c70 c6be aead 82be
000002f0: 4b46 d7be 19ae 963d 0fe9 9fbd 83e3 ae3d
00000300: 4a23 1bbe 5cc4 f5be ca8e b3be c28b 813c
00000310: 199d 87be 7cb2 a43e a890 b5be 5e89 6abe
00000320: 6698 793e c435 5d3d 72a7 95be 2ce0 853e
00000330: 97f3 733e 110b 6c3e 0372 4abe fb3b 8fbc
00000340: 6a20 a83d 3b63 f03d 6e36 593e 04a6 3cbd
00000350: 4af5 74be d7ab 3c3e 63b4 51be c7a6 c5be
00000360: 5beb 533e 9551 4abe 4438 3ebe 8ced a3bd
00000370: 6a4c 84be b628 30be cbdd 2f3e 9806 2abe
00000380: 2cac 983e ba3b 0dbe 60d6 ca3e a01b 3c3d
00000390: e055 4cbe 93c7 bebd 66d4 ffbd cb72 513e
000003a0: 49d0 5ebd fcde 1ebd bebf 05be 27a8 253b
000003b0: 5c7a 3cbc 7169 cd3c f636 6cbe 895d 11be
000003c0: dc68 e63d 8a09 493e 7d4c b3ba d52e 1cbe
000003d0: ead7 6e3e 7043 ebbd 63e3 19be 5e8d 5cbe
000003e0: 065c 13be ad41 343e 1f83 6b3e 401c fc3d
000003f0: 478c 7abd be24 6fbe f9bf 44bd 1e0b 58be
0.18197703 0.1620255 -0.4038398 0.1394425 0.24984093 0.18817307 0.026998201 -0.45942217
-0.06596676 0.19607927 -0.033296354 -0.1039981 -0.18114439 0.15692315 -0.29502997 -0.21951564
0.089095086 -0.12520613 -0.120422855 -0.10630933 0.29290926 0.10075767 -0.27824387 0.15992022
0.10397393 -0.3190002 -0.021688737 -0.17669788 0.2888762 -0.10572706 -0.02842686 0.023090627
-0.049501445 -0.07191085 0.015139515 -0.09505792 -0.11859085 0.048189823 0.3527759 -0.17735618
-0.29521558 0.06432511 -0.065258116 -0.20972875 -0.05724557 0.19616532 0.18792272 -0.1439534
-0.43407294 -0.112561084 -0.0011249181 0.064259596 0.26127484 -0.07583849 0.1555339 -0.31923553
-0.30798292 0.02505519 -0.15885285 -0.27987644 0.30433738 0.12421976 0.3142842 -0.21746275
0.3094576 -0.021505922 -0.06971156 -0.3941333 -0.34981966 0.3323132 -0.1133794 -0.4276513
-0.09058618 -0.16955325 0.19118443 0.090519734 -0.25844276 -0.24774663 0.078543305 0.07700669
0.17916198 0.040287644 0.29315484 0.2500024 -0.17351663 0.026945103 0.16237998 -0.22947435
-0.32818502 -0.026887262 -0.027825462 0.07000423 0.25504386 -0.069876134 0.053847644 -0.08586597
-0.05131248 0.041272134 -0.2326277 0.10516933 -0.37130034 0.24117678 0.25515458 0.027550828
-0.21940024 0.31278592 -0.009349912 -0.3349728 0.27522662 -0.27526924 0.030867875 -0.28758803
-0.049003575 -0.13305123 0.19350408 0.12201087 -0.097231455 -0.032804463 -0.121731125 -0.062584825
0.007078719 -0.28693756 0.4004139 -0.20042351 -0.10692902 0.376347 -0.13210617 -0.24887687
0.21530597 0.18760419 0.24424893 -0.25315014 -0.073944435 -0.032700125 -0.13685866 -0.35176533
-0.2465835 0.29746825 0.042085305 0.025410542 0.22591145 -0.2703078 0.13063592 0.24953492
-0.2332646 0.0633546 0.11750955 -0.12738892 0.21550477 0.20165253 -0.020482738 -0.32030487
0.09464911 -0.20147264 0.31962037 -0.13373837 -0.050858654 -0.09305545 -0.0013095523 -0.047673404
0.3482672 -0.1633763 0.08200582 0.23779118 -0.32717535 0.16248488 0.10256583 0.028537681
-0.23768023 0.12045556 -0.40270555 0.15568262 -0.11642254 0.2040805 -0.35486257 0.08381927
0.08555141 0.122518964 0.13334136 -0.32342196 0.11969857 -0.09064806 0.03151288 0.3068416
-0.23420103 0.0049434947 -0.3875774 -0.25523132 -0.42045817 0.07357425 -0.07808124 0.08539488
-0.1515018 -0.48001373 -0.35069877 0.015813712 -0.26487043 0.32167423 -0.35461926 -0.22903964
0.24374542 0.054006353 -0.29229313 0.26147592 0.23823391 0.23051096 -0.19770055 -0.017484656
0.082093075 0.11737677 0.2121217 -0.046056762 -0.23921695 0.18424927 -0.20478968 -0.38603804
0.2069525 -0.19757684 -0.18576151 -0.08004293 -0.2583955 -0.1720303 0.17174451 -0.16604078
0.29818857 -0.13792315 0.3961668 0.045924783 -0.19954634 -0.093154095 -0.12491684 0.20453946
-0.054397855 -0.038786873 -0.13061425 0.0025277229 -0.011503782 0.025074692 -0.23067841 -0.14195837
0.11250469 0.19632545 -0.0013679411 -0.1525224 0.23324552 -0.11487472 -0.15028147 -0.21538302
-0.14390573 0.17603178 0.22999237 0.12310076 -0.061168935 -0.2335386 -0.048034642 -0.21097991

conv1.bias f4 [64]
00000000: a179 ba3d 30a7 a03f c1c0 1abe b588 a13f
00000010: 9bd4 90bf 0693 7e3e 38c1 85bf 2f13 b93f
00000020: 4e2c 513b b986 86bf 5875 1abf 193d 06bf
00000030: f16b fe3e 6f58 cabe 806a 0f40 81f9 ba3f
00000040: 295c e0bd 6454 bb3f c348 07bf b84c 113f
00000050: c340 1a3f e9c2 fa3f 7f5a 9abe 7922 a7be
00000060: 273c 19bf 0411 2140 750c 45bf 3d31 333f
00000070: 152d b3bf 470a 8e3f d8e7 2a40 e16c ccbe
00000080: 4d58 0740 572a 5e3f a384 08be 3624 1440
00000090: 5cd8 24bf aef2 43be 02ef 5e3f 88cd 2a3f
000000a0: 5ba8 febf a31a fb3f 3e66 cf3e 9fc2 093f
000000b0: 904b 9c3f 479f 1f3f 4973 b73f 1d05 8cbf
000000c0: 016c 0440 f56e c3bc 50b1 ac3e a606 873f
000000d0: 2efb af3f a0cc 0e40 7ccb 27bc 4e68 e6bf
000000e0: b923 0740 232a 563f 6880 8bbf d2e2 4dbf
000000f0: 8b00 14bc 3a42 fb3e 5941 663f 214e 3b3f
0.0910523 1.2551022 -0.15112592 1.2619845 -1.1314882 0.24860772 -1.0449591 1.4458979
0.0031917277 -1.0509864 -0.603353 -0.5243698 0.49691728 -0.39520594 2.2408752 1.4607393
-0.10955078 1.4635129 -0.528454 0.5675769 0.6025507 1.9590732 -0.30147168 -0.32643488
-0.5985741 2.5166636 -0.7697213 0.69997007 -1.3998133 1.1096886 2.6704006 -0.39926818
2.1147645 0.86783355 -0.13331847 2.3147101 -0.6439264 -0.19135544 0.87083447 0.66719866
-1.9895128 1.9617504 0.40507692 0.53812593 1.221056 0.6235241 1.4332057 -1.093906
2.069092 -0.02385662 0.3372903 1.0548904 1.3748529 2.2312393 -0.010241386 -1.8000581
2.1115553 0.83658046 -1.0898561 -0.80424225 -0.009033333 0.49073964 0.8994346 0.7316609

conv2.weight f4 [64, 64, 3, 3]
00000000: 30d8 89bc 5ec2 d43c a5d4 f03b 8fc5 a43c
00000010: 5e6f 21bc 44d4 03bd c357 69bc 0bd6 c73d
00000020: 9ddb c63c d5a9 11be 1831 4a3d b76f b3bd
00000030: a42f e8bb f9c5 ae3d 0689 83bd ea5d 933d
00000040: 3885 11bd 0644 50be dcff 173d 5499 79bd
00000050: ce09 213c 0df5 c6ba ec4a dfbd d66f a93d
00000060: df3c 8bbc a0ae e8bd c63b 223e 9ab6 5abd
00000070: a2f2 cc3c ecf9 1ebc 8af0 7bbd 558b 09bc
00000080: e59e b4bb ba40 85bd 3b80 3b3d 228f c6bd
00000090: 7b3d 5fbd 45fc 22bd 017e 1abe 9e3a 21be
000000a0: 148b 0fbe 939a abbd f017 21be 5766 67be
000000b0: b1fb 57bd b759 753a baeb 95ba ae08 3cbd
000000c0: ddae 82bc b1f3 bfbc 896d 21bc bf56 eebc
000000d0: 9183 ab3c b2a3 bdbc eb3f 83bd e627 acbd
000000e0: ff98 52bd d8f6 ea3d cf3f 113d a7ee a83d
000000f0: 01b8 4cbd 4ef8 84bb e3f2 b43a 3be9 42bd
00000100: 83dd a1bd b8a6 b6bd 70a1 68be 1b83 67bd
00000110: f897 dbbd 59c3 5fbe 18c9 0bbe ca8b 9abe
00000120: 36f2 f6bd 44d1 ddbd 2589 f13b 9eea b4bc
00000130: 7150 91bd 14b1 f53c 85c4 713c 3f33 b7bd
00000140: 0415 cebc c86a 3cbc 01f5 9cbd bcb8 aabd
00000150: 5ae4 96bc ad63 b9bd 3bae 6dbc 3602 86bd
00000160: f704 0bbe 5d15 e1bb 0ab9 993c a048 b4bc
00000170: 44c4 82bd de0b 623d 92f5 ba3d a3f8 8b3b
00000180: c42a dabc c2b2 bf3b 8969 85bd f1f3 03bd
00000190: c5ce 043c 6fe3 0c3d 82cf 953c 6d6f c83c
000001a0: 8951 e93a e5de d0bc b905 16bd 99ec f4bb
000001b0: d20c 68be 0c91 adbd ccb1 a3bd 067a 193e
000001c0: 50bc 5bbd db03 8ebd d872 4f3d 81e2 efbd
000001d0: a82b c93c e273 0cbd 539a a4bc a967 9c3d
000001e0: 93f1 6d3c 95b1 f1bd 3553 b2bd 9160 543d
000001f0: 24e7 8cbe 2802 0e3c c9dc 8e3e 9876 213e
00000200: 03bd 553e fe99 153e d9cf 023e d04d 763d
00000210: 003b 2a3d 3fe4 41be 9041 233d 9eff 2abd
00000220: 2021 b4bd 7724 54bd 1a3c f2bd f5be 15be
00000230: 6c82 dcbd 6366 cbbd 8b6c dabd 6a6b 50be
00000240: 6671 27bd 5b2c 19be e1c5 7abe 3ae8 fcbd
00000250: aa54 77be 13b0 4bbe 229b 27bd 5f7a 2fbe
00000260: 363c 2fbe 66de 213d 43dc 03bd 5d76 7cbd
00000270: aca6 ac3d 96b9 0abd b6e9 74bd f768 dd3d
00000280: d6bb 91bd a1ce 7cbd 038d debb 1fcc 92bd
00000290: c1c0 1b3d b6e6 5fbd 747c 01be 4c33 e4bb
000002a0: 16b8 f3bb 7110 1bbd 22ae ee3b ad5a 86bc
000002b0: 5781 e2bb 7d8f 8fbc e84f 2c3d 6675 3d3c
000002c0: 5705 613c 4f3e 3a3d 76c1 64bc 8b70 4c3d
000002d0: 3572 03be 2f67 f8bc d325 8dbc f64b 633e
000002e0: 5645 933d 017c b4bb 8ce9 45bd ca80 33bd
000002f0: 1207 823d ad4b 1bbf 970d ddbd 41bf d23d
00000300: f0ae e9be c6b3 77be 2384 a8bc 0d22 a5be
00000310: 25ba 683c 15ef 0c3e 53c0 b63d 20f2 d73d
00000320: af4a c73d 113d a93d ba84 ef3c a492 993d
00000330: 7cb2 ff3c 4fe1 d6bd a88d ad3d 2ebe 1abd
00000340: 169c f4bc e91f 02bd dcd0 dfba 5a7e 2cbc
00000350: bdfc 8bbd bac0 683b 9916 cebd 806b c1bd
00000360: 5c09 75be 24a3 c8bd 16aa a43c eea3 94bc
00000370: e379 023e 5a52 b93c 782f 953b 4890 b33d
00000380: e2c5 2a3c e99d 503e c3b1 993d 02b5 2abd
00000390: e0f7 113e 3c2d 0a3e 8423 cc3b 41b4 1f3e
000003a0: bfe0 43bd d6c6 18be 2f2d 78bc 99bd dbbd
000003b0: e01a bcbc 8567 5bbc ef9a 583b e4fa 403d
000003c0: 9479 603b 9006 edbb be6d 653c dc5c 0b3c
000003d0: b98a 97bd 4dd8 ac3c 676c 293c 30aa 273c
000003e0: 1f00 543d eebe 563d 1132 4f3d 5977 a6bb
000003f0: 2799 1dbe b177 7bbe 1bf5 953d 2439 40bc
-0.016826719 0.025971588 0.007349568 0.020113735 -0.009853212 -0.032184854 -0.014242115 0.09757622
0.024274642 -0.14224942 0.049363226 -0.08761542 -0.0070857573 0.08533854 -0.064226195 0.07195647
-0.035527438 -0.20338449 0.03710924 -0.06093724 0.009828998 -0.0015179232 -0.10902962 0.08273284
-0.016996799 -0.11361432 0.15843114 -0.0533968 0.02501804 -0.009703141 -0.061508693 -0.008395036
-0.0055121058 -0.06506486 0.045776587 -0.09695269 -0.05450199 -0.039791364 -0.15087129 -0.15745017
-0.14017898 -0.08379092 -0.15731788 -0.22597633 -0.052730266 0.0009359377 -0.001143805 -0.045906715
-0.015952522 -0.02343163 -0.009852775 -0.029094098 0.02093676 -0.023149345 -0.06408676 -0.084060475
-0.05141544 0.11472863 0.035461243 0.08248644 -0.049980167 -0.0040579205 0.0013805296 -0.047585707
-0.07903578 -0.08918518 -0.22717834 -0.056521516 -0.10722345 -0.21851863 -0.1365093 -0.30184776
-0.12057917 -0.1083093 0.007371085 -0.02208453 -0.07095421 0.029991664 0.014756327 -0.08945321
-0.025156505 -0.011500068 -0.07663918 -0.083360165 -0.018419433 -0.09052215 -0.014506872 -0.065433905
-0.13576113 -0.006869002 0.018764991 -0.022007287 -0.06385091 0.0551871 0.0912887 0.004271583
-0.02663172 0.005850167 -0.0651427 -0.032215063 0.008105938 0.034396585 0.018287424 0.024467194
0.0017800789 -0.02549691 -0.03662655 -0.0074744937 -0.2266114 -0.08474931 -0.079928964 0.14987954
-0.053646386 -0.06934329 0.050646633 -0.11713124 0.02455695 -0.034290202 -0.020093119 0.07636959
0.014522928 -0.11801449 -0.08707277 0.051849905 -0.27520096 0.008667506 0.2790282 0.15767896
0.20872883 0.14609525 0.127746 0.0601328 0.041560173 -0.18934725 0.039857447 -0.04174768
-0.087953806 -0.051792588 -0.1182787 -0.14623626 -0.107670635 -0.09931638 -0.10665234 -0.20353475
-0.04087963 -0.14958327 -0.24489547 -0.12348981 -0.2415339 -0.19891386 -0.04091943 -0.17136525
-0.17112812 0.039518736 -0.03219248 -0.061636318 0.08430228 -0.033868395 -0.059793197 0.10811036
-0.07115905 -0.061720494 -0.0067917123 -0.07167839 0.03802562 -0.054663382 -0.12645131 -0.006964123
-0.0074377162 -0.037857477 0.007283942 -0.01640066 -0.006912391 -0.017524475 0.042068392 0.0115636345
0.013734183 0.04546958 -0.01396214 0.049912017 -0.12836535 -0.03032264 -0.01722995 0.22196946
0.07190959 -0.0055079465 -0.04831843 -0.043823995 0.06349005 -0.6066235 -0.10793608 0.10290385
-0.4564128 -0.24189672 -0.02057082 -0.3225254 0.014204537 0.13763078 0.08923402 0.105442286
0.09731042 0.082636006 0.029238094 0.074986726 0.031213038 -0.10492193 0.084742844 -0.037779026
-0.029859584 -0.031768713 -0.0017075795 -0.010528171 -0.068353154 0.0035515265 -0.10062904 -0.09444332
-0.23929352 -0.097967416 0.020100635 -0.018144574 0.12741809 0.022622276 0.004552778 0.08767754
0.0104231555 0.20372738 0.075046085 -0.04167653 0.14254713 0.13493818 0.0062298197 0.15596105
-0.047821756 -0.149196 -0.015147491 -0.10729522 -0.022962034 -0.01339138 0.0033051332 0.047114268
0.0034252154 -0.0072334483 0.014003215 0.008506026 -0.07399506 0.021099234 0.010340787 0.010233447
0.051757928 0.05242818 0.050584856 -0.0050801453 -0.15390454 -0.24557377 0.07322141 -0.011732373

conv2.bias f4 [64]
00000000: 4453 b03f fac4 eb3d c7f8 bfbf 6953 debe
00000010: 1d83 0a40 d4d6 1840 7e52 36bf f8dc 8a3e
00000020: 8d04 a13e f2ff f33f 34ac 89bf 62dd 243f
00000030: 196f ae3f 3cd1 4cbd f4bf a23f 3d3e e23f
00000040: 3c1b 8e3f 2f97 f03e 95bb 4b3f 10ff 593f
00000050: 6ac2 21c0 0ef0 9f3f 5bc4 303f f2df 34bf
00000060: c389 973f 772c e23e 87cb 983f 74f5 293f
00000070: 6089 0b3e 01fd 823f 8753 0940 1610 1b40
00000080: 17eb f33e 00e7 25c0 69bc 1740 004e e83f
00000090: c898 cdbd 0aa8 7d3f 59c7 0140 ba09 21c0
000000a0: 6c09 f73e d626 f1bd 741f 073c e4d2 1ac0
000000b0: ac9d b9be 5f34 d03e 9a6a 923e 78b1 053e
000000c0: ceed 513f ca17 b6b8 0f52 ba3f e7b8 3640
000000d0: 18a5 b43e 914b 6b3f 7dc5 843f 8922 b2bf
000000e0: c246 263f 0ea3 143e 2280 df3f 401e 623e
000000f0: 5cf9 05bd 524c 1240 8832 9ebd 445f 0f40
1.3775411 0.1151218 -1.4997796 -0.43423012 2.1642525 2.388112 -0.71219623 0.2712171
0.31448784 1.9062483 -1.0755677 0.64400303 1.3627654 -0.05000423 1.271483 1.7675244
1.1102061 0.46990344 0.795831 0.8515482 -2.527491 1.2495134 0.69049615 -0.70654213
1.1838917 0.4417455 1.1937112 0.66390157 0.13626623 1.0233461 2.145723 2.4228568
0.47640297 -2.5922241 2.3708746 1.8148804 -0.10038906 0.9908453 2.0277922 -2.5162187
0.48249376 -0.117749855 0.008247245 -2.4191217 -0.36253107 0.40664956 0.28596956 0.1305598
0.82003486 -8.682867e-05 1.4556292 2.8550355 0.35282207 0.9191218 1.0372769 -1.3916789
0.6495172 0.14515325 1.7460978 0.22081852 -0.03270851 2.2859082 -0.07724482 2.2401896

conv3.weight f4 [64, 64, 3, 3]
00000000: 4962 543c f626 52bd 0161 a53d b33c e03c
00000010: e6c2 283d 9c58 98bb e098 eb3d 954a ea3c
00000020: b456 9a3d 9b7c 9b3a 519d 80bd 0708 44bd
00000030: 363f 02bd 8cfa a5bd 6ea2 4fbd fabd 97bd
00000040: d087 383d 494e e0bb 5acb ecbd f2c0 5abc
00000050: ed7f e1bd 5673 90bd 5210 54bd b8dc 28bd
00000060: 3fae 61bd be5f 8fbd d4bc 79bd f109 21be
00000070: 295d bdbe a3e2 9cbe 3eee dbbd 16b8 b3be
00000080: 494c 0dbf d27e 703e 1fe7 c0be 5a8e cbbe
00000090: c105 313b d2d0 0cbe 6150 02bd 1aa2 05be
000000a0: 11f0 853c a606 b0bd 3a4b 20be 2841 8cbd
000000b0: 4f04 b4bd 5f31 1f3e 2236 5cbd 4e3b df3d
000000c0: 3607 36bd 077a a03d ca4e c2bc 3066 81bd
000000d0: 95ba 173d 0554 273c 5b95 953d 2164 0fbe
000000e0: d0f4 723c 7a5d 1ebd ac44 69be c7dc da3c
000000f0: fb3f 4bbd 56c4 d4bd a30b cabc 3860 42bd
00000100: dd6d 95be fa7d 10be 6ca2 c6bd 2c9b d73c
00000110: fea1 9dbd 4c9a 14be 16d1 65bd beb1 0cbd
00000120: ecb1 883d 8c14 543d ff2f 613d 0d78 d03b
00000130: f804 963d 1d27 703d 856f cf3b dd18 793d
00000140: 8f34 3f3d 47c3 1e3d 4401 cfbd 572b bd3d
00000150: 3874 7bbd 90ae 5abb daa9 b53d e096 16be
00000160: 31a9 3ebd 800c 8ebd d5cd 26bc 6260 4ebd
00000170: c367 8ebc 34f9 4abe 0fbc 4dbd e558 12be
00000180: 2a75 123d 3c22 723d a867 9b3c bbb0 b53d
00000190: a24a 6abc 319b 48bc 3540 a63c 60a2 b9bc
000001a0: 4c8e 4f3d aa0e 283d 66ec 46bc 7b72 9a3b
000001b0: 5bda 473e 67c8 c53d d93a f23d f033 c33d
000001c0: 3054 aa3c b53d 343d ae55 483e 50aa 533d
000001d0: 1c80 d53d 3b90 12bd 3e58 88bc 8cbf b9bc
000001e0: 9fb9 f6bc 6b1b b0bc 1cca 40bc 24e4 223c
000001f0: 014b a33a f35b 003c 4f29 cd3d 62d9 c33d
00000200: 14df b93d a3bc c63d b11e 23bc 16a1 c83d
00000210: c9df bd3d 5b53 1b3d 909c 1e3d ec0f 893d
00000220: 20ef babc b5d1 d43d 9a0e 6e3c ffd9 273d
00000230: 2811 e43c fb76 0e3d fb55 f53c c993 fa3c
00000240: a474 693c 8fce a03d 7036 1dbc 7d8c 683d
00000250: a954 7e3b 046d a13c 9138 c43c 6d9a 1fbc
00000260: 482d 173c 4e1b 7d3e c31e 6e3d 505a 8b3d
00000270: b720 2d3c fdbc 9e3d b185 a3bc 044d 2f3e
00000280: 263f c53d 7762 24bd fbc0 d7bd 9c57 fa3c
00000290: 93af d5bd 0102 82bd 30d1 b6bd fc83 4abd
000002a0: da5d 823d 516f 86bd 2ccf 843d 88a5 3cbd
000002b0: 6052 a33d 30ca adbc 78c0 ff3c eada bb3b
000002c0: fa00 f03c 17e8 9a3d 2482 233d 2b61 943b
000002d0: c9da 29bd 45c7 1ebe 33bb 5dbe 50fb 943d
000002e0: 6417 63bd 03e7 30be ce2e 24bc 2b9c 4bbd
000002f0: dd54 32be 6b21 94be a53a 1ebd d1c1 0ebd
00000300: ed04 5cbd a358 dfbc e9db 2cbd 5f79 39be
00000310: 893b e9bd eb9a dfbd 9402 bf3c 288c c23c
00000320: beb0 903d ef25 e83d e552 6f3d bc69 ad3d
00000330: bc80 013d 1637 553d 5789 6b3d 536f 47bd
00000340: fe33 bbbc bd5f c3bc 7db3 c8bc e91e ec3c
00000350: a31b b3bc d422 21be 437b 6bbc d3be ab3c
00000360: c8a0 3ebd dfa2 f3bc 835c 223d b10c f63d
00000370: d8d4 5dbd 9ce7 83bd d3e9 bbbb 51f6 d73c
00000380: 6bf4 41ba bd7e 38bd 947f 423c 821a 68bd
00000390: 8f54 06bc 3ad2 3f3d 76dc 593b 423d 14bd
000003a0: d004 d9bc 16f5 efbd eae2 22be ac93 ae3c
000003b0: 687c 44bd 046d 1cbe 0192 43be 4d56 24bd
000003c0: 8fc4 1bbc 6d61 41bd 7410 39bd 1f65 403c
000003d0: 5024 b13d f794 c6bb e7c3 f33c ed74 e0bc
000003e0: 0d73 963d 849c dabc 9d62 863b 811a c53b
000003f0: 7334 22bd 0eed a73c 8d4c 833b eeae 36bd
0.012962886 -0.051306687 0.08075143 0.027372694 0.041201495 -0.004649235 0.11503768 0.028600017
0.075360686 0.0011862697 -0.06280006 -0.047859218 -0.031798564 -0.08104429 -0.050692014 -0.07409282
0.045051396 -0.00684527 -0.11562224 -0.013351666 -0.11010728 -0.070532486 -0.051773377 -0.04122612
-0.055097815 -0.07000683 -0.060971096 -0.15726449 -0.36985138 -0.3064166 -0.107388005 -0.35101384
-0.55194527 0.23485878 -0.3767633 -0.39757043 0.0027011486 -0.13751534 -0.031814937 -0.13050118
0.016349824 -0.08595018 -0.15653697 -0.06848365 -0.08789884 0.15546177 -0.053762563 0.10899983
-0.04444047 0.07835775 -0.02371921 -0.06318319 0.037043173 0.010212903 0.07303878 -0.1400304
0.014828876 -0.038663365 -0.22780102 0.026716603 -0.049621563 -0.103890106 -0.024663752 -0.047455043
-0.29185382 -0.14110556 -0.09698948 0.026319109 -0.07696913 -0.14511985 -0.056107603 -0.034349196
0.06674561 0.051777408 0.054977413 0.0063619674 0.073251665 0.05863105 0.006330433 0.060814727
0.046680983 0.03876045 -0.10107663 0.09236782 -0.06139013 -0.0033368208 0.08870287 -0.14705992
-0.046548072 -0.06935978 -0.01018091 -0.050384887 -0.017383462 -0.19821626 -0.050228175 -0.14291723
0.035756268 0.05911468 0.018970326 0.08871599 -0.01430002 -0.012244032 0.020294288 -0.022660434
0.050672814 0.04102961 -0.012141323 0.004713354 0.1951689 0.09657364 0.118276305 0.09531391
0.020792097 0.04400416 0.19563934 0.051676095 0.104248255 -0.03578208 -0.01664364 -0.022674344
-0.030117808 -0.021497449 -0.011766937 0.009942088 0.0012458266 0.007834422 0.100176446 0.09562947
0.09075752 0.09703948 -0.009956048 0.0979635 0.09271199 0.03792129 0.03872353 0.0669249
-0.022819102 0.10391561 0.0145298485 0.04097938 0.027840212 0.034781437 0.029948225 0.030588048
0.014249001 0.07851898 -0.009595498 0.056774605 0.0038807786 0.019705303 0.023952754 -0.009741408
0.0092271045 0.24717447 0.058134805 0.06804335 0.010566882 0.077508904 -0.01996121 0.17119223
0.09631185 -0.040132966 -0.10534855 0.030559354 -0.10433879 -0.063480385 -0.08926618 -0.049442276
0.06365557 -0.06564201 0.064848274 -0.0460563 0.07974696 -0.021214575 0.031219706 0.0057328837
0.02929734 0.07563799 0.039919034 0.004528185 -0.041468415 -0.15505703 -0.21653442 0.072744966
-0.05544223 -0.17275624 -0.010020925 -0.04970948 -0.17415185 -0.28931746 -0.038630147 -0.034852806
-0.053715635 -0.027263945 -0.04220191 -0.18112706 -0.113883086 -0.1091822 0.023316659 0.023748472
0.07064961 0.1133536 0.058428664 0.08467433 0.03161691 0.052054487 0.057504024 -0.04869015
-0.02285194 -0.023849363 -0.02449965 0.028823333 -0.021863764 -0.15735942 -0.01437265 0.020965016
-0.04654005 -0.029740749 0.039639007 0.120141394 -0.05415806 -0.0644066 -0.005734661 0.02636257
-0.0007398787 -0.045042742 0.011871237 -0.056665905 -0.008198871 0.046831347 0.0033242977 -0.036191233
-0.026491553 -0.11716668 -0.15906873 0.02131065 -0.047970206 -0.15275961 -0.19098665 -0.040121365
-0.009507312 -0.047212053 -0.045181707 0.011742859 0.08649504 -0.0060602385 0.0297565 -0.027399505
0.07346163 -0.02668596 0.004101111 0.0060151224 -0.0396008 0.020498779 0.0040069283 -0.04460042

conv3.bias f4 [64]
00000000: 1e7c 2d40 0365 2ebe 53a5 dc3f a1ef c33f
00000010: 5a3e f43e 9e3e ca3f 1419 a33f daad ed3f
00000020: 7e13 4b40 ba68 50bf 318b 51bd 3f1e 1f40
00000030: 8ca3 3d40 b0e0 b13e 55fe e73f fdc3 1840
00000040: cf04 e53f 41e3 853f 968c ecbe a08b 3440
00000050: 7444 113f 38a4 52be 80d9 aa3f f4d8 a8bc
00000060: b438 4d3f a8c0 a23e d617 103f 3873 fa3f
00000070: 65f1 1340 e7e4 7e3f e3fe f33f 5763 573f
00000080: 7abf 2140 8fda 763f aa55 d13d 0c5b 973e
00000090: 43d7 643e f1eb 2a40 48c8 4d40 0f81 ee3f
000000a0: f2bc 2940 3702 0440 c384 2c40 2b79 513f
000000b0: 87ce 0640 87f8 5340 4e31 1cbe b488 e1bb
000000c0: 4ead 473f 0677 d43e e200 bb3e 7e5a 863e
000000d0: 7c86 1240 a9f2 d93f 08cd ffbe 5661 0b40
000000e0: f7ee 8a3f 219f e63d 708c 8cbd 5ca9 c73e
000000f0: 4837 23be 5acf dcbd 1b94 4540 35e4 2c3f
2.7107005 -0.1703072 1.7237953 1.5307504 0.4770382 1.5800359 1.2742028 1.856868
3.1730647 -0.814098 -0.051158134 2.486221 2.963107 0.34741735 1.8124491 2.3869622
1.7892092 1.0459977 -0.4620101 2.821022 0.56745076 -0.20570457 1.3347626 -0.020611264
0.8016465 0.3178761 0.5628637 1.9566412 2.3116086 0.9956803 1.906216 0.84135956
2.5273118 0.96427244 0.10221417 0.2956165 0.22347741 2.6706507 3.2153492 1.8633136
2.6521573 2.0626352 2.6956031 0.8182551 2.1063554 3.312044 -0.15253183 -0.0068827514
0.77998817 0.41497058 0.3652411 0.26240915 2.2894583 1.7027179 -0.49961114 2.177816
1.0854176 0.1126082 -0.06862724 0.38996398 -0.15939057 -0.10781737 3.0871646 0.67535716

conv4.weight f4 [64, 64, 3, 3]
00000000: ab91 b2bc f66d 93bc 30f9 32bd dbf2 ee3b
00000010: 58f4 e53b a0e6 9e3c c292 3dbd 2e08 4cbd
00000020: c37d 9cbd 6505 bebc 8cea cbbc 79e0 ccbc
00000030: 6e10 373d 82a4 c73c 0720 2f3d 177c 753c
00000040: f08a 90bc 197f a1bc 2f19 a0bd 12f3 7dbd
00000050: f79e 33bd ba75 99bc 7b6b a6bd 251b 54bd
00000060: 0707 f5bc 5656 f8bc 4763 eeba 0773 1dbd
00000070: d7f0 60bd 8294 04bc 9996 aabc 6e62 93bc
00000080: e244 9cbc a9cf cebb 205d c5bc a659 a2bb
00000090: 4024 003e 3857 b93d 40b6 bc3d 7777 943d
000000a0: 7370 d03d 0032 9c3d 2227 42bd 307e abbd
000000b0: 0349 d63b 101f c8bd 2e78 593d 0dcf 0e3d
000000c0: 5ff2 a5bc 87a9 8b3c 0823 14bd 092f 0ebd
000000d0: 2ff6 993d 496b a6bd b7d4 cdbc f19a 843c
000000e0: 5c7a 72bc 0cf6 cc3c d2b3 ecbc 1e80 26bc
000000f0: fc27 35bd 5960 9fbb d148 103c 44e3 37bd
00000100: 3118 79bc ec8f 0b3d 2d91 3cbd 4fec a63c
00000110: 4ce8 db3c d0ff b0bd c0b9 cbbd e155 b5bd
00000120: bcc0 98bd 94da 96bd 534a 89bd a879 6cbd
00000130: ffd4 31bd 14a1 45bd 84e9 223c 4531 06bd
00000140: 5ba4 dfbb af33 57bd d51c 3abc d616 84bd
00000150: 43b8 2bbc 7aa7 883d e621 3ebd cac2 aebb
00000160: 29ba bc3c 5adb 48bd 52a9 d63d 8cb3 c4bd
00000170: cc24 e4bd 02f1 4f3d d458 d8bc 3dd7 00be
00000180: ba98 aaba 1852 03bd e1b8 64bc 4593 f13c
00000190: fab9 29bd da43 033d 6f35 3cbd e752 2fbd
000001a0: e979 0abd dbc4 2aba f4ba 19bd 50d0 67bb
000001b0: bf5c 5abd ecc2 073c bb49 8fbd c2f6 f3bc
000001c0: 39c1 33bb 2c18 ee3c 5322 31bd a367 ffbc
000001d0: 5425 50bc d6a8 32bd ee4a f73c 51f2 83bd
000001e0: a08c cdbd e4b1 22bb 1218 d1bd 8585 7c3c
000001f0: 6b1a a83d 04b9 97bd 3146 12bd 3d1e e13a
00000200: 3206 e3bc 42e7 673b 6797 9bbd 6340 8c3c
00000210: 92df 8cbd 8633 8abd fc11 a8bd 9adc 83bb
00000220: db40 12bd 70f5 ca3c 8121 30bd 388a 093d
00000230: 270d 96bc f62b ab3c 2323 c9bc 9936 40bd
00000240: 758e 71bc 3930 543c e161 e6bb b5bb e93b
00000250: a177 1e3d fe1a 7a3d 9ebd 01ba 9d9c 76bd
00000260: 313e 1bbd eb56 983d b4b0 c63d 9392 aa3d
00000270: d50e 9f3d 870d cf3c dee6 8a3c 0b36 45bd
00000280: a512 c3bc c1f0 1cbd e18c 423d 3d35 c5bd
00000290: 76a4 c4bc f7ab d3bb 9ce9 cebd 5191 9dbd
000002a0: 30ac 8a3d c996 fcbd fb88 8abc cbde 54bd
000002b0: bd70 efbc bd3e a0bd 4943 45bd 9c53 95bd
000002c0: 51db cf3b a2db 8cbd 5e02 81bd bf7e 35bc
000002d0: ab51 c03c 6260 923c e284 133d dc82 2e3d
000002e0: de44 ed3c a7e2 9fbc bea3 52bb 5f7e 61bd
000002f0: 82ac 3abd cc3a edbc 37d4 a93d 98e0 3e3d
00000300: 02df 613d 7620 8f3d 3d23 f43d 3a82 9f3b
00000310: 0fc4 573c 1f34 a23d a200 07bc 3509 41bd
00000320: 18e3 b2bc 4c88 48bd af00 eabb bdeb 3e3c
00000330: bb0a a6bc ea4a 67bc 98ee 3ebd 06a0 6fbd
00000340: f8ab e43c 979c 703c 20c7 9cbc 7432 e13c
00000350: 70e9 443c 8f9b 29bb bb21 d4bb 08eb a83d
00000360: 48dc 43bd a65e 96bd ccb4 a1bd 0a80 bbbc
00000370: 9937 c8bd 72c4 a1bd eb65 c1bd 02c9 97bd
00000380: eae4 bcbc d518 c63c f67f cd3c 354d c53c
00000390: 4561 c23d 0c0a 5c3d 70af 933d da88 e43d
000003a0: 0be5 6c3d 229b e23d 83b7 ca3c e0bc 5fbb
000003b0: 03ba 92bc 343a 6bbc d4d4 f1bc 4ee7 32bc
000003c0: 6b5f 8cbd 0728 adbd 8c5b ccbd 5c7e 60bd
000003d0: 0020 e8bc a372 0fbd f749 b7bc 0d39 c1bc
000003e0: 4338 09bd 9e5c 1ebd c822 69bc 31ff 0ebd
000003f0: 5f55 113d 23ee b03c 3317 203c 1dc9 8c3d
-0.021797976 -0.01799677 -0.043694675 0.007292134 0.0070176534 0.01939708 -0.046282537 -0.04981249
-0.07641175 -0.023195932 -0.024892114 -0.02500938 0.044693403 0.024370436 0.042755153 0.014983199
-0.017644376 -0.019713925 -0.078173034 -0.061999388 -0.043852773 -0.018732894 -0.08125969 -0.0517837
-0.029910577 -0.030314606 -0.0018187546 -0.038439777 -0.054917183 -0.008092048 -0.020823764 -0.01799127
-0.019075815 -0.006311376 -0.024092257 -0.0049545346 0.12513828 0.09049839 0.09214449 0.072493486
0.10177698 0.07626724 -0.0474006 -0.08373678 0.0065394654 -0.0977155 0.053093128 0.034865428
-0.020257173 0.01704861 -0.03616622 -0.034712825 0.07517659 -0.08125932 -0.025125844 0.016187163
-0.014799681 0.025019668 -0.028894339 -0.010162381 -0.044227585 -0.0048637805 0.008806423 -0.04489447
-0.015203522 0.0340728 -0.046036888 0.020376353 0.026844166 -0.08642542 -0.099475384 -0.08854271
-0.07458636 -0.07365909 -0.06703629 -0.057733208 -0.04341602 -0.04824932 0.00994337 -0.03276183
-0.0068250126 -0.052539524 -0.011359413 -0.06449668 -0.010480943 0.066725686 -0.046419047 -0.0053332793
0.023037987 -0.049037315 0.10481514 -0.09604558 -0.11139831 0.050766952 -0.026409544 -0.12582107
-0.0013015487 -0.032060713 -0.013960094 0.029489169 -0.041437127 0.03204713 -0.045949396 -0.04280367
-0.03380767 -0.0006514319 -0.037531808 -0.0035371967 -0.053311106 0.008286219 -0.06996485 -0.02978075
-0.0027428402 0.02906426 -0.043245625 -0.031177348 -0.012704212 -0.043618046 0.030187096 -0.064427026
-0.10036588 -0.002482527 -0.10209669 0.015412693 0.08208164 -0.07408336 -0.03571147 0.0017175149
-0.027712915 0.0035385643 -0.07597237 0.017120546 -0.0687858 -0.067481086 -0.08206555 -0.0040241005
-0.035706382 0.024775237 -0.0430007 0.03357908 -0.018316818 0.020894986 -0.024552887 -0.04692707
-0.014743437 0.01295095 -0.007030711 0.007132972 0.038688306 0.061060898 -0.00049492146 -0.06020795
-0.037901107 0.07438453 0.09701672 0.08328738 0.07766501 0.025275005 0.01695579 -0.048147243
-0.023812601 -0.03831554 0.047497634 -0.09629295 -0.024004202 -0.006459709 -0.10103151 -0.076937325
0.067711234 -0.123334475 -0.01691102 -0.051970284 -0.029228562 -0.078244664 -0.04815987 -0.07291338
0.006343283 -0.06877829 -0.0629928 -0.011077582 0.023476442 0.017868225 0.0360154 0.042605266
0.028963502 -0.019517256 -0.0032141055 -0.055052157 -0.045574673 -0.0289587 0.0829243 0.046600908
0.055144317 0.06988613 0.11920784 0.004867819 0.013169303 0.079200976 -0.008239897 -0.04712792
-0.021836802 -0.048958108 -0.007141195 0.011652884 -0.020268789 -0.014116982 -0.04661426 -0.05850222
0.027914032 0.014685771 -0.019137919 0.027489878 0.012018546 -0.0025880074 -0.0064737475 0.08247954
-0.0478175 -0.073422715 -0.078958124 -0.022888202 -0.097762294 -0.07898797 -0.094432674 -0.07411386
-0.023058373 0.024181763 0.02508543 0.024084667 0.09491209 0.05372052 0.072111964 0.11158915
0.05783562 0.110647455 0.024745708 -0.0034139678 -0.017910963 -0.014357138 -0.02952043 -0.010919405
-0.06854137 -0.084549 -0.09978399 -0.054808006 -0.028335571 -0.035021435 -0.022374136 -0.023586774
-0.03350092 -0.038662545 -0.014229484 -0.03491134 0.035481807 0.021597927 0.009771156 0.06874297

conv4.bias f4 [64]
00000000: 7e68 d33c 33cb f73d ea19 cebf cfdf ac3f
00000010: ee43 00be e77c 373f 8d8b e43e 2fe3 4bbe
00000020: e806 35bf 1695 1fbf 96fe 0f40 883b ce3e
00000030: 6f00 563f e031 4abd 3610 9d3e 034f 4d40
00000040: 9a47 073f 6949 0ebc 7717 f4bd 3286 3a40
00000050: b146 a43d be90 1f40 4fbf 903e 7c23 883f
00000060: f416 b53d 2369 b83f cfea e83f 2192 153f
00000070: 0ca4 0d40 e8fd a03e bb46 8a3e b653 aabc
00000080: 5b33 bbbd 79cf 613f 5893 c2bd 9b87 443f
00000090: 3e3f 2440 37ca 4140 b932 2440 bb4a 5ebd
000000a0: e2c3 d23f b880 183e 21bc 953f 6f47 e43f
000000b0: c9ef 46be b2b2 0140 9275 babc c235 573f
000000c0: 1b49 cb3d 745e 10be f473 1640 8ab1 353f
000000d0: bb95 db3d eafc ae3d 9650 4b3e 9e17 5e3f
000000e0: 6f24 043c 6d31 bb3d 0d29 85bf aa8a 3840
000000f0: 8d82 59bc abf2 dd3f 5012 b93e 99a1 a13e
0.025806662 0.12099304 -1.6101658 1.3505801 -0.12525913 0.7167496 0.4463772 -0.19910882
-0.70713663 -0.6233686 2.2499137 0.40279794 0.8359441 -0.04936397 0.3067643 3.2079475
0.5284363 -0.0086844945 -0.11918538 2.9144406 0.08021296 2.4932094 0.28270957 1.0635829
0.088422686 1.4407085 1.8196658 0.584261 2.2131376 0.31443715 0.27007088 -0.02079187
-0.09140655 0.88207203 -0.0950076 0.7676942 2.56636 3.0279672 2.5655959 -0.054270487
1.6466029 0.14892852 1.1698037 1.78343 -0.19427408 2.0265317 -0.02276114 0.840664
0.09926053 -0.14098531 2.3508272 0.7097403 0.10721918 0.08544333 0.1985496 0.86754787
0.008065327 0.091402866 -1.0403153 2.8834634 -0.013275755 1.7339681 0.36146784 0.31568602

conv5.weight f4 [64, 64, 3, 3]
00000000: f30c 22bd deae bbbc 6815 433d a329 21ba
00000010: 9a44 80bc e330 163d 5ec9 81bc a62e ac3c
00000020: f539 0f3d 5e10 1a3d f395 d53c b2c8 283c
00000030: 9f00 3cbd 4fe8 17bd e679 be3c c972 f63b
00000040: ef08 713c 4f05 a6ba 153b 00be e970 4abc
00000050: 13be a0be 51e9 94bb e552 bfbd d8f9 14be
00000060: cafe 4dbe 2f5e e6bd dfa4 43bd 4004 f4bd
00000070: 31ee 21bd f481 91bc fa34 ecbc 9056 53bc
00000080: 2141 17bd f0b2 b63c b7f8 6c3d 6bc7 4bbb
00000090: af2c 983a 3bb5 043d 1e22 953c c7dc a9bb
000000a0: 9cf5 05bd d703 dc3c e670 eebc 77d6 a93c
000000b0: a221 903b b2ab 433c a049 213d 4efd ab3d
000000c0: 0583 09bc 16e0 823c a56f 04bb 66b7 983d
000000d0: 939c dc3c d867 9cbb 00a1 a33c d4dd 683c
000000e0: 3b87 9abd 813e dabb 6ea8 3cbd 62b7 95bd
000000f0: 461a d9bc 1724 2fbd c18f 05bd 2f11 34bd
00000100: 8888 3abe cb72 ae3d ee9d abbc ca41 a8bd
00000110: 105b 1b3d dee4 55bd 1758 2e3d 8088 b7bd
00000120: 7310 28bd 01fd 0abd 9bd6 53bb d31a 50bc
00000130: 3314 7aba 079a f33c fb61 c73b e528 58bc
00000140: 50b6 5f3d 5b02 c9bd c4f0 febd 1770 b4bd
00000150: 94ae 16be 5a25 0cbe 167a 4bbd 2eae 1fbe
00000160: bfd9 1cbe cec0 bfbd c891 713d cf86 10bd
00000170: 6da3 1c3b 0d9a cdbc afb4 84bd 0281 9e3d
00000180: 5fe0 073d 8355 4f3d 4631 973d 7371 f4bc
00000190: f492 c63c bbdd 233d 3d29 dcbd 3d8e 53bc
000001a0: 5d67 0f3d 6d3d bbbd 340d 813d 7e6f 88bc
000001b0: d32b 6bbd 22a8 ad3b b4ec c1ba 0eb9 76bd
000001c0: c82b 5fbd 2bed 41bd b6a4 c2bc 628f 31bc
000001d0: a5d6 02bd a3f4 c2bd 38f3 b03c 1ea5 23bd
000001e0: b41c edbd dce0 5fbd 62f4 40be 7dde 30be
000001f0: e0fe 06be 69f7 24be 4316 d9bc fca1 b53b
00000200: 11a3 a73c b698 023d 47ba ac3b c69b 293d
00000210: 5ed7 e5bc eac4 36bc 88f4 993c ed96 8bbc
00000220: 831d 4dbb f2b2 a2bd 3a8a 0dbc 27cc 57bd
00000230: 9ad6 4cbd a11e acbc e9b6 0abd 0a18 e2bc
00000240: fc80 ddbd e410 72bd 4d25 a43b 19ec 9fbd
00000250: a22d 2e3a c857 213c 8e5f 25bd 6e5c a93c
00000260: abe3 f53c 913f 133d d9a1 68bc 0137 b9bc
00000270: 0bcd 303c 051b 9dbb e3eb f4bb d579 f5bc
00000280: 698f 71bb a160 0abc 58b0 05bd 979f 9d3d
00000290: a6df b83d 6d78 71bc 2f6b e43d 3353 473d
000002a0: 0e89 093d a572 d23d 67da 8c3d c970 7d3d
000002b0: 59c1 2b3b c962 fa3c 36bc 4d3d 4ee4 1c3d
000002c0: 0f0c 7f3d bb78 063d 5c95 b4bc d0eb b8bd
000002d0: e2e8 433c 426e 8abd d224 c43c 3081 bebd
000002e0: 1c3f 9bbd fe05 c33d 02a1 1d3c e3b6 3d3d
000002f0: 6f18 883d 99ff 8bbd 95a6 bfbd 3010 e2bc
00000300: 469f 97bd d70c e2bd 9a82 c0bd 91cb 0cbe
00000310: 98ce 93bd 5a87 dabd cdeb ddbc 4d1c a8bc
00000320: aacf f4bb b417 5a3c 905d ae3c b3fd 903c
00000330: dfe7 37bb b2f1 b13c a66d e5bc 24b2 873b
00000340: 415a 303d 80b4 88bb 793f 21bd af9d 81bc
00000350: ac07 363d 77a5 f4bc 2374 963c 95fc b33c
00000360: bc03 b3ba 071c 233a 3594 60bc d3ce 1d3d
00000370: 5bbf 48bc 397f c53c 9b27 12bd 4201 a03c
00000380: 0599 ef3c 57e0 c0bd d443 e2bc 83d3 88bc
00000390: 129b ddbd 206a 333d 9aa8 d3bd 8c19 2a3d
000003a0: a3df 733d 6099 72bd 6edb 82bc 6094 c4bb
000003b0: 651a c3bd c200 5dbc 9f61 853c 9b55 6cbd
000003c0: bee5 c6bc 2717 cdbd 9979 37bc 9d78 9f3c
000003d0: e9c2 573c 845e 213d ddb0 a83c c33e 24bd
000003e0: 5eca 0ebc 2001 fabb d5e6 593c 0128 fe3c
000003f0: 288c 87bd dfa0 313c f751 943d 203f 3f3d
-0.03956313 -0.022910532 0.047627836 -0.0006147867 -0.015657712 0.036667716 -0.01584309 0.021018337
0.03496738 0.037613265 0.026072478 0.010301756 -0.04589903 -0.03708678 0.023251485 0.0075210077
0.014711603 -0.0012666377 -0.12522538 -0.012356021 -0.31395015 -0.004544415 -0.09341983 -0.14548433
-0.20116726 -0.11248433 -0.047764655 -0.11914873 -0.039533798 -0.017762162 -0.028833855 -0.012899056
-0.036927346 0.02230212 0.05785438 -0.0031094204 0.0011609996 0.032399397 0.018204745 -0.0051837894
-0.032704934 0.0268573 -0.029106569 0.020732148 0.0043985406 0.011942791 0.039376855 0.083979234
-0.008393054 0.015975993 -0.0020208147 0.074568555 0.02693013 -0.0047731213 0.019974232 0.014213044
-0.075453244 -0.006660283 -0.046059065 -0.07310368 -0.026501786 -0.042759027 -0.032607798 -0.0439617
-0.18216145 0.08517989 -0.02094933 -0.08215673 0.03792864 -0.052220218 0.042564478 -0.08961582
-0.041031312 -0.03393269 -0.003232396 -0.012701708 -0.0009539753 0.029736532 0.006084678 -0.013193344
0.054617226 -0.098149024 -0.12448266 -0.08810442 -0.14715034 -0.13686123 -0.049676977 -0.15593788
-0.15317439 -0.093629465 0.05897692 -0.035284813 0.002390112 -0.025097871 -0.06479775 0.0773945
0.03317296 0.05061866 0.07382445 -0.029839253 0.024239995 0.04000638 -0.10750053 -0.01291233
0.035010684 -0.091425754 0.063013464 -0.016654726 -0.05741484 0.005299584 -0.0014795274 -0.060235076
-0.054485112 -0.04734532 -0.02376018 -0.010837408 -0.031942982 -0.09519317 0.02160035 -0.03995239
-0.1157774 -0.054657802 -0.18843225 -0.17272373 -0.13183165 -0.16110004 -0.026499873 0.0055429917
0.020463498 0.031883918 0.0052712294 0.041408323 -0.028056797 -0.011155346 0.01879336 -0.01703974
-0.0031298108 -0.07944287 -0.008638913 -0.05268493 -0.050009347 -0.021010699 -0.033865843 -0.027599353
-0.108156174 -0.05909814 0.0050093294 -0.07808704 0.0006644373 0.009847589 -0.04037433 0.020673957
0.030015787 0.035949294 -0.014198744 -0.022609236 0.010791074 -0.0047944807 -0.007474409 -0.02996532
-0.003685916 -0.00844589 -0.032638878 0.07696455 0.090270326 -0.014738184 0.11153256 0.04866333
0.03357797 0.10275773 0.068775944 0.06187514 0.0026207773 0.030564683 0.05022832 0.038303666
0.06226736 0.03282998 -0.022043876 -0.09029353 0.011957379 -0.06759311 0.023943339 -0.09301984
-0.075803965 0.09522627 0.009620907 0.046316992 0.06645285 -0.06835861 -0.09357945 -0.02759561
-0.07403426 -0.11037605 -0.0939991 -0.1374953 -0.07217139 -0.106703475 -0.027089978 -0.020521307
-0.0074710445 0.013311315 0.021284848 0.017699098 -0.002806179 0.021721695 -0.028006386 0.004141109
0.043054823 -0.004171908 -0.039367173 -0.01582226 0.04444091 -0.029864056 0.018365925 0.021971026
-0.0013657729 0.0006222133 -0.01370721 0.03852732 -0.012252654 0.024108516 -0.035682302 0.01953185
0.02924777 -0.094177894 -0.027620234 -0.01670242 -0.10820593 0.04380238 -0.103348926 0.04152827
0.05953945 -0.0592283 -0.015973773 -0.005999133 -0.09526519 -0.01348895 0.0162819 -0.057698827
-0.024279471 -0.100141816 -0.011198425 0.019466693 0.013169029 0.039396778 0.020592147 -0.040098917
-0.00871524 -0.0076295286 0.013299664 0.031024935 -0.066185296 0.010841577 0.07242196 0.04669106

conv5.bias f4 [64]
00000000: fe55 0140 9848 1c40 613f 0540 02bd d43f
00000010: 81d9 543f 6681 303e 2a60 593e 4d1b 893e
00000020: 082e 363e ba52 ec3f 27c2 ba3e 0ecf 043f
00000030: 647e 423e b582 a83e 3bfd 6e3f c6ba ad3e
00000040: 6667 663d 2aca 713f 7d48 c53e 7de8 1c3e
00000050: 3809 963f 8bd3 713f 57e1 9b3f 222a cb3e
00000060: 7c2f 3f3f 2c41 413c 09de 1c3e 94df 7b3e
00000070: e11b c13e ec12 123f 4c98 2640 91ba f63e
00000080: 21f6 0440 37e4 2e40 b471 e73e f79c 863e
00000090: 38aa 443d 6d7a 3cbd f0f4 353f 1d4e ba3e
000000a0: 33c2 6d3e 5ec4 ed3e b0de 0340 eb71 fa3e
000000b0: ac5a 353f c8c1 a43f 0395 733e da09 0b3f
000000c0: 76d8 1240 7867 173d 94e6 f83f a147 ae3e
000000d0: e392 be3f fa27 573f 1c01 dd3e 8911 1b3f
000000e0: 3d24 143f 786c 813e c3b5 413f 5de8 e53e
000000f0: 1924 d73f f3af c23e 51b0 2640 8636 0740
2.0208735 2.4419308 2.0819933 1.6620181 0.83144385 0.17236862 0.2122809 0.2677864
0.17790997 1.8462746 0.3647625 0.5187844 0.18993527 0.32912222 0.9335515 0.3393156
0.056250952 0.944491 0.38531867 0.15323062 1.1721563 0.94463414 1.2178143 0.39680582
0.7468183 0.011795323 0.15319075 0.24597007 0.37716582 0.5706012 2.6030455 0.48189214
2.0775225 2.7326791 0.45203936 0.2629163 0.048013896 -0.04601519 0.7107687 0.3638772
0.23218612 0.4643888 2.0604668 0.48915038 0.7084148 1.2871637 0.23787312 0.5431191
2.2944617 0.03696391 1.9445367 0.34039024 1.4888576 0.84045374 0.4316491 0.6057363
0.57867795 0.25278068 0.7566797 0.44903842 1.6807891 0.38024864 2.6045115 2.1127028

conv6.weight f4 [1, 64, 3, 3]
00000000: c5e8 7ebc 24ee b33c 41d8 6abc 226d 293c
00000010: 4c0e 29bd e8e4 87bd c9a0 c73c 6235 70bd
00000020: 5211 cabc f6df 0abc c385 99bc 5194 a23c
00000030: c63b 8dbd 8191 54bd b718 5abd e726 e93b
00000040: 194f 853c b624 f7ba 5882 2b3d 2e82 3bbd
00000050: 592f d5bc ea7d 783d 6d97 453d 5385 b93c
00000060: 6cc4 5bbc 94ad 03bb 0a23 ebbc d3ce 3abc
00000070: f45f 06bc 3cd3 893c f4d9 31bc 49d3 043a
00000080: 4ed3 c43c 8087 9f3c 0bf3 0b3d 4548 f33c
00000090: df21 883c 5ff0 113c 154a 49bc 430e ce3c
000000a0: f27f 5f3c 9e68 7abc a412 b73b a8d6 873d
000000b0: 9d6d 013b ab52 3b3d c421 24bc dc85 4bba
000000c0: a090 dd3c a3b2 c13c 09b3 373d e321 3abc
000000d0: e8d4 023d be79 983b a806 ed3c 04ce 96bc
000000e0: 47d3 8a3c c40d 03ba 6a0f ca3c 34d8 e43b
000000f0: 94dd e73c c622 963b 84b0 73bc 4bd0 b13c
00000100: b90d 2c3c b20d 1f3d ca12 4abc 7ef1 02bb
00000110: cafd a63d 9aee 6d3c f5d7 03bc 3fd0 f2bc
00000120: 1e9e 62bc beb4 743d e8a6 04bb 7921 9abc
00000130: 1723 683a 987f 0c3c b80c 843b 76fb 13bb
00000140: 06c4 f8bb ff95 16bd e562 463d 08e1 a13b
00000150: d304 17bd 1951 1b3d df02 68bd fae1 8abb
00000160: 8ffb d13c c5bd 3a3d 1a3c 24bd 66f0 2fbd
00000170: 8f84 da3c 381d 3a3c 9f78 1f3d d32d 37bd
00000180: 044c be3c 4ea5 af3c 3c18 603c 5748 88bc
00000190: 84aa 763d f578 793c 3974 87bc 3203 1fbd
000001a0: 931b 243d bbcf e6bb bb83 8dba 8938 67ba
000001b0: 14e0 39bc 6b7a 213d 19e4 313d 2e29 1ebc
000001c0: 053e a33c 2cc4 fe3b 6384 c7bc 7702 3e3d
000001d0: b43c b53b b6ad 0ebd c44a 0ebc b3c1 063d
000001e0: 825d 203c 194b dd3c 2f0f e83c 610c 063d
000001f0: ff9b 803b 2bcc 84bc a384 1dbc 167c 0f3d
00000200: fb87 a0bd 960f c53c e510 45bd a2f6 debc
00000210: 6bf5 41bc 9b61 61b9 0b62 333d 102a a0bc
00000220: d7eb f93c 329b 663d b9c0 843d f14f b0bc
00000230: e367 f03c f548 57bd ac57 5fbd d835 f53c
00000240: 3e57 883b 1b4d ca3c 1aa3 d6bc 8a9a 983c
00000250: 3b76 d83c af94 59bc e7b2 0c3d 03e8 02bd
00000260: 167c 84bc b7e9 173d 2b87 773b 94bc 54bb
00000270: e180 b9bc 8d5d 913d f9da 8b3a b856 fb3c
00000280: 75f0 2e3b d66c 4aba 60b8 8cbc fc97 8c3c
00000290: 5edf 403d 9411 d93b 807d cebc cd5c 863b
000002a0: 17a0 b1bc eb0e ec3c ece7 303d 801c 44bd
000002b0: a18a 8cbb 4233 d13b 356a 9f3d baf5 773d
000002c0: 6562 72bc 6947 e03b fe69 123c 744e 523c
000002d0: a063 ae3c ec42 69bc 6e7f bc3c f67f afbc
000002e0: a37a a83c 1802 afbc 9af9 753c 184c 9e3d
000002f0: ddc6 8dbc 1326 723d de03 633d 9575 49bc
00000300: 12d3 debc f4bb b9bc c858 5dbc beb4 823c
00000310: 353c 8d3d a68a 8ebb 349c 42bc edf0 86bc
00000320: 2541 3ebd 52df 193d 8cd9 10bb ddf1 993b
00000330: 333a 3e3d 2694 243d 6d59 1abd c21a a6bb
00000340: e9b8 7d3c f1ec afbb 723f 383c d6ae 4d3a
00000350: e5ba 303d 9782 0b3d 5762 18bc ee2e 703d
00000360: 8e98 3a3c fd70 6c3d 9af4 043d 5e5b 223b
00000370: 5eda 603c 0637 4fbd 5316 cebc 4d7e b13c
00000380: f033 fbbc 1144 85bc cbea 10bd 07b2 d2bb
00000390: 11a5 493c 4989 eb3c 60bb 023d b753 813c
000003a0: 5839 2dbc ca87 573c a2c0 91bc 3794 00bb
000003b0: 0e4f c1bc b0b8 10bd ad38 923c 78df 123d
000003c0: 4d3d c0bc e6e8 323c 87de 14bd 1713 41bd
000003d0: 1b02 8d3c 1edf 22bc d0fd b93c 4ad0 30bb
000003e0: a007 f83c 6f70 933c 7855 3a3d e618 243d
000003f0: 5534 773d 108a f73c fd35 4b3c 1197 22bc
-0.015558426 0.02196414 -0.0143337855 0.010340961 -0.0412734 -0.06635457 0.02436866 -0.05864466
-0.024666462 -0.008476248 -0.01874054 0.019846113 -0.068961665 -0.051896576 -0.053246226 0.007115233
0.016273068 -0.0018855545 0.041872352 -0.045778446 -0.026023554 0.060666956 0.048240114 0.022646582
-0.01341353 -0.0020092474 -0.028703231 -0.01140185 -0.008201588 0.016824357 -0.010855187 0.00050668843
0.02402654 0.019473791 0.03416733 0.029697547 0.016617713 0.008907407 -0.012285729 0.025153285
0.013641344 -0.015283732 0.005586939 0.06632739 0.0019749172 0.045733135 -0.010017816 -0.0007763782
0.027046502 0.023644751 0.044848476 -0.011360618 0.031941324 0.0046531847 0.028933838 -0.018408783
0.016946448 -0.00049993047 0.024665553 0.0069837812 0.028303899 0.004581782 -0.014873628 0.021705767
0.010501319 0.03883142 -0.012333581 -0.0019980366 0.08153875 0.014522219 -0.008047094 -0.029640315
-0.013831643 0.05974268 -0.0020241085 -0.01881479 0.00088553265 0.008575343 0.0040298365 -0.0022580302
-0.007591727 -0.03676414 0.048434157 0.004940156 -0.036869835 0.037919138 -0.056643363 -0.0042383643
0.025632648 0.045591135 -0.04009638 -0.04295387 0.026674537 0.011359505 0.038933393 -0.044721436
0.023229606 0.021441128 0.013677653 -0.016636057 0.06022121 0.015226592 -0.016534911 -0.038821407
0.04006536 -0.0070438064 -0.0010796705 -0.0008820375 -0.011344928 0.039423387 0.04343042 -0.009653373
0.019927034 0.0077748504 -0.02435512 0.04638907 0.005530918 -0.034833632 -0.008684818 0.03289957
0.009787919 0.027013348 0.028327553 0.03272665 0.003924846 -0.016210636 -0.009614143 0.035030447
-0.07838436 0.024055284 -0.048111815 -0.027217213 -0.011838297 -0.00021494033 0.043794673 -0.019551307
0.030507965 0.05630035 0.064820714 -0.021522494 0.029346412 -0.05255981 -0.05452697 0.029932901
0.0041607907 0.02469497 -0.02620082 0.018628377 0.026423564 -0.013280078 0.034350302 -0.031959545
-0.01617245 0.037088122 0.0037769775 -0.0032461034 -0.022644462 0.070979215 0.0010670117 0.030681
0.0026693617 -0.00077219063 -0.01717776 0.017162316 0.04708802 0.00662441 -0.025206327 0.004100418
-0.021682782 0.028815707 0.043189928 -0.047878742 -0.004288987 0.0063842842 0.07783929 0.060537077
-0.014793967 0.0068444503 0.008936403 0.0128360875 0.02128774 -0.014237147 0.023009982 -0.021423321
0.02056629 -0.021363303 0.015013123 0.077293575 -0.01730674 0.05911834 0.05542361 -0.0122961
-0.027200256 -0.02267263 -0.013509937 0.015955325 0.06896249 -0.0043500243 -0.011878062 -0.016472304
-0.046448845 0.03756649 -0.0022102324 0.004698022 0.04644222 0.040180348 -0.03768294 -0.0050691077
0.015485981 -0.005368822 0.011245595 0.0007846182 0.043146987 0.034060087 -0.00930079 0.058638506
0.011388911 0.05772494 0.032459833 0.0024773697 0.013723938 -0.050589584 -0.02515713 0.02166667
-0.030664414 -0.016267808 -0.035380166 -0.006429914 0.012307421 0.028751986 0.031916976 0.015786989
-0.010572754 0.013154933 -0.01779205 -0.0019619593 -0.023597267 -0.03533238 0.01784929 0.035857648
-0.02346673 0.010919785 -0.03634503 -0.047137346 0.017212918 -0.009940891 0.022704035 -0.0026979619
0.030277073 0.017997948 0.045491666 0.040062808 0.060352642 0.0302172 0.0124030085 -0.009923712
