resnet_model_quantized.onnx (onnx, 158907 bytes, 11 tensors)

conv1.bias f4 [64]
0	0x3dba79a1	0.0910523
1	0x3fa0a730	1.2551022
2	0xbe1ac0c1	-0.15112592
3	0x3fa188b5	1.2619845
4	0xbf90d49b	-1.1314882
5	0x3e7e9306	0.24860772
6	0xbf85c138	-1.0449591
7	0x3fb9132f	1.4458979
8	0x3b512c4e	0.0031917277
9	0xbf8686b9	-1.0509864
10	0xbf1a7558	-0.603353
11	0xbf063d19	-0.5243698
12	0x3efe6bf1	0.49691728
13	0xbeca586f	-0.39520594
14	0x400f6a80	2.2408752
15	0x3fbaf981	1.4607393
16	0xbde05c29	-0.10955078
17	0x3fbb5464	1.4635129
18	0xbf0748c3	-0.528454
19	0x3f114cb8	0.5675769
20	0x3f1a40c3	0.6025507
21	0x3ffac2e9	1.9590732
22	0xbe9a5a7f	-0.30147168
23	0xbea72279	-0.32643488
24	0xbf193c27	-0.5985741
25	0x40211104	2.5166636
26	0xbf450c75	-0.7697213
27	0x3f33313d	0.69997007
28	0xbfb32d15	-1.3998133
29	0x3f8e0a47	1.1096886
30	0x402ae7d8	2.6704006
31	0xbecc6ce1	-0.39926818
32	0x4007584d	2.1147645
33	0x3f5e2a57	0.86783355
34	0xbe0884a3	-0.13331847
35	0x40142436	2.3147101
36	0xbf24d85c	-0.6439264
37	0xbe43f2ae	-0.19135544
38	0x3f5eef02	0.87083447
39	0x3f2acd88	0.66719866
40	0xbffea85b	-1.9895128
41	0x3ffb1aa3	1.9617504
42	0x3ecf663e	0.40507692
43	0x3f09c29f	0.53812593
44	0x3f9c4b90	1.221056
45	0x3f1f9f47	0.6235241
46	0x3fb77349	1.4332057
47	0xbf8c051d	-1.093906
48	0x40046c01	2.069092
49	0xbcc36ef5	-0.02385662
50	0x3eacb150	0.3372903
51	0x3f8706a6	1.0548904
52	0x3faffb2e	1.3748529
53	0x400ecca0	2.2312393
54	0xbc27cb7c	-0.010241386
55	0xbfe6684e	-1.8000581
56	0x400723b9	2.1115553
57	0x3f562a23	0.83658046
58	0xbf8b8068	-1.0898561
59	0xbf4de2d2	-0.80424225
60	0xbc14008b	-0.009033333
61	0x3efb423a	0.49073964
62	0x3f664159	0.8994346
63	0x3f3b4e21	0.7316609

conv2.bias f4 [64]
0	0x3fb05344	1.3775411
1	0x3debc4fa	0.1151218
2	0xbfbff8c7	-1.4997796
3	0xbede5369	-0.43423012
4	0x400a831d	2.1642525
5	0x4018d6d4	2.388112
6	0xbf36527e	-0.71219623
7	0x3e8adcf8	0.2712171
8	0x3ea1048d	0.31448784
9	0x3ff3fff2	1.9062483
10	0xbf89ac34	-1.0755677
11	0x3f24dd62	0.64400303
12	0x3fae6f19	1.3627654
13	0xbd4cd13c	-0.05000423
14	0x3fa2bff4	1.271483
15	0x3fe23e3d	1.7675244
16	0x3f8e1b3c	1.1102061
17	0x3ef0972f	0.46990344
18	0x3f4bbb95	0.795831
19	0x3f59ff10	0.8515482
20	0xc021c26a	-2.527491
21	0x3f9ff00e	1.2495134
22	0x3f30c45b	0.69049615
23	0xbf34dff2	-0.70654213
24	0x3f9789c3	1.1838917
25	0x3ee22c77	0.4417455
26	0x3f98cb87	1.1937112
27	0x3f29f574	0.66390157
28	0x3e0b8960	0.13626623
29	0x3f82fd01	1.0233461
30	0x40095387	2.145723
31	0x401b1016	2.4228568
32	0x3ef3eb17	0.47640297
33	0xc025e700	-2.5922241
34	0x4017bc69	2.3708746
35	0x3fe84e00	1.8148804
36	0xbdcd98c8	-0.10038906
37	0x3f7da80a	0.9908453
38	0x4001c759	2.0277922
39	0xc02109ba	-2.5162187
40	0x3ef7096c	0.48249376
41	0xbdf126d6	-0.117749855
42	0x3c071f74	0.008247245
43	0xc01ad2e4	-2.4191217
44	0xbeb99dac	-0.36253107
45	0x3ed0345f	0.40664956
46	0x3e926a9a	0.28596956
47	0x3e05b178	0.1305598
48	0x3f51edce	0.82003486
49	0xb8b617ca	-8.682867e-05
50	0x3fba520f	1.4556292
51	0x4036b8e7	2.8550355
52	0x3eb4a518	0.35282207
53	0x3f6b4b91	0.9191218
54	0x3f84c57d	1.0372769
55	0xbfb22289	-1.3916789
56	0x3f2646c2	0.6495172
57	0x3e14a30e	0.14515325
58	0x3fdf8022	1.7460978
59	0x3e621e40	0.22081852
60	0xbd05f95c	-0.03270851
61	0x40124c52	2.2859082
62	0xbd9e3288	-0.07724482
63	0x400f5f44	2.2401896

conv3.bias f4 [64]
0	0x402d7c1e	2.7107005
1	0xbe2e6503	-0.1703072
2	0x3fdca553	1.7237953
3	0x3fc3efa1	1.5307504
4	0x3ef43e5a	0.4770382
5	0x3fca3e9e	1.5800359
6	0x3fa31914	1.2742028
7	0x3fedadda	1.856868
8	0x404b137e	3.1730647
9	0xbf5068ba	-0.814098
10	0xbd518b31	-0.051158134
11	0x401f1e3f	2.486221
12	0x403da38c	2.963107
13	0x3eb1e0b0	0.34741735
14	0x3fe7fe55	1.8124491
15	0x4018c3fd	2.3869622
16	0x3fe504cf	1.7892092
17	0x3f85e341	1.0459977
18	0xbeec8c96	-0.4620101
19	0x40348ba0	2.821022
20	0x3f114474	0.56745076
21	0xbe52a438	-0.20570457
22	0x3faad980	1.3347626
23	0xbca8d8f4	-0.020611264
24	0x3f4d38b4	0.8016465
25	0x3ea2c0a8	0.3178761
26	0x3f1017d6	0.5628637
27	0x3ffa7338	1.9566412
28	0x4013f165	2.3116086
29	0x3f7ee4e7	0.9956803
30	0x3ff3fee3	1.906216
31	0x3f576357	0.84135956
32	0x4021bf7a	2.5273118
33	0x3f76da8f	0.96427244
34	0x3dd155aa	0.10221417
35	0x3e975b0c	0.2956165
36	0x3e64d743	0.22347741
37	0x402aebf1	2.6706507
38	0x404dc848	3.2153492
39	0x3fee810f	1.8633136
40	0x4029bcf2	2.6521573
41	0x40040237	2.0626352
42	0x402c84c3	2.6956031
43	0x3f51792b	0.8182551
44	0x4006ce87	2.1063554
45	0x4053f887	3.312044
46	0xbe1c314e	-0.15253183
47	0xbbe188b4	-0.0068827514
48	0x3f47ad4e	0.77998817
49	0x3ed47706	0.41497058
50	0x3ebb00e2	0.3652411
51	0x3e865a7e	0.26240915
52	0x4012867c	2.2894583
53	0x3fd9f2a9	1.7027179
54	0xbeffcd08	-0.49961114
55	0x400b6156	2.177816
56	0x3f8aeef7	1.0854176
57	0x3de69f21	0.1126082
58	0xbd8c8c70	-0.06862724
59	0x3ec7a95c	0.38996398
60	0xbe233748	-0.15939057
61	0xbddccf5a	-0.10781737
62	0x4045941b	3.0871646
63	0x3f2ce435	0.67535716

conv4.bias f4 [64]
0	0x3cd3687e	0.025806662
1	0x3df7cb33	0.12099304
2	0xbfce19ea	-1.6101658
3	0x3facdfcf	1.3505801
4	0xbe0043ee	-0.12525913
5	0x3f377ce7	0.7167496
6	0x3ee48b8d	0.4463772
7	0xbe4be32f	-0.19910882
8	0xbf3506e8	-0.70713663
9	0xbf1f9516	-0.6233686
10	0x400ffe96	2.2499137
11	0x3ece3b88	0.40279794
12	0x3f56006f	0.8359441
13	0xbd4a31e0	-0.04936397
14	0x3e9d1036	0.3067643
15	0x404d4f03	3.2079475
16	0x3f07479a	0.5284363
17	0xbc0e4969	-0.0086844945
18	0xbdf41777	-0.11918538
19	0x403a8632	2.9144406
20	0x3da446b1	0.08021296
21	0x401f90be	2.4932094
22	0x3e90bf4f	0.28270957
23	0x3f88237c	1.0635829
24	0x3db516f4	0.088422686
25	0x3fb86923	1.4407085
26	0x3fe8eacf	1.8196658
27	0x3f159221	0.584261
28	0x400da40c	2.2131376
29	0x3ea0fde8	0.31443715
30	0x3e8a46bb	0.27007088
31	0xbcaa53b6	-0.02079187
32	0xbdbb335b	-0.09140655
33	0x3f61cf79	0.88207203
34	0xbdc29358	-0.0950076
35	0x3f44879b	0.7676942
36	0x40243f3e	2.56636
37	0x4041ca37	3.0279672
38	0x402432b9	2.5655959
39	0xbd5e4abb	-0.054270487
40	0x3fd2c3e2	1.6466029
41	0x3e1880b8	0.14892852
42	0x3f95bc21	1.1698037
43	0x3fe4476f	1.78343
44	0xbe46efc9	-0.19427408
45	0x4001b2b2	2.0265317
46	0xbcba7592	-0.02276114
47	0x3f5735c2	0.840664
48	0x3dcb491b	0.09926053
49	0xbe105e74	-0.14098531
50	0x401673f4	2.3508272
51	0x3f35b18a	0.7097403
52	0x3ddb95bb	0.10721918
53	0x3daefcea	0.08544333
54	0x3e4b5096	0.1985496
55	0x3f5e179e	0.86754787
56	0x3c04246f	0.008065327
57	0x3dbb316d	0.091402866
58	0xbf85290d	-1.0403153
59	0x40388aaa	2.8834634
60	0xbc59828d	-0.013275755
61	0x3fddf2ab	1.7339681
62	0x3eb91250	0.36146784
63	0x3ea1a199	0.31568602

conv5.bias f4 [64]
0	0x400155fe	2.0208735
1	0x401c4898	2.4419308
2	0x40053f61	2.0819933
3	0x3fd4bd02	1.6620181
4	0x3f54d981	0.83144385
5	0x3e308166	0.17236862
6	0x3e59602a	0.2122809
7	0x3e891b4d	0.2677864
8	0x3e362e08	0.17790997
9	0x3fec52ba	1.8462746
10	0x3ebac227	0.3647625
11	0x3f04cf0e	0.5187844
12	0x3e427e64	0.18993527
13	0x3ea882b5	0.32912222
14	0x3f6efd3b	0.9335515
15	0x3eadbac6	0.3393156
16	0x3d666766	0.056250952
17	0x3f71ca2a	0.944491
18	0x3ec5487d	0.38531867
19	0x3e1ce87d	0.15323062
20	0x3f960938	1.1721563
21	0x3f71d38b	0.94463414
22	0x3f9be157	1.2178143
23	0x3ecb2a22	0.39680582
24	0x3f3f2f7c	0.7468183
25	0x3c41412c	0.011795323
26	0x3e1cde09	0.15319075
27	0x3e7bdf94	0.24597007
28	0x3ec11be1	0.37716582
29	0x3f1212ec	0.5706012
30	0x4026984c	2.6030455
31	0x3ef6ba91	0.48189214
32	0x4004f621	2.0775225
33	0x402ee437	2.7326791
34	0x3ee771b4	0.45203936
35	0x3e869cf7	0.2629163
36	0x3d44aa38	0.048013896
37	0xbd3c7a6d	-0.04601519
38	0x3f35f4f0	0.7107687
39	0x3eba4e1d	0.3638772
40	0x3e6dc233	0.23218612
41	0x3eedc45e	0.4643888
42	0x4003deb0	2.0604668
43	0x3efa71eb	0.48915038
44	0x3f355aac	0.7084148
45	0x3fa4c1c8	1.2871637
46	0x3e739503	0.23787312
47	0x3f0b09da	0.5431191
48	0x4012d876	2.2944617
49	0x3d176778	0.03696391
50	0x3ff8e694	1.9445367
51	0x3eae47a1	0.34039024
52	0x3fbe92e3	1.4888576
53	0x3f5727fa	0.84045374
54	0x3edd011c	0.4316491
55	0x3f1b1189	0.6057363
56	0x3f14243d	0.57867795
57	0x3e816c78	0.25278068
58	0x3f41b5c3	0.7566797
59	0x3ee5e85d	0.44903842
60	0x3fd72419	1.6807891
61	0x3ec2aff3	0.38024864
62	0x4026b051	2.6045115
63	0x40073686	2.1127028

conv1.weight_quantized i1 [64, 1, 3, 3]
0	0x1a	26
1	0x17	23
2	0xc7	-57
3	0x14	20
4	0x23	35
5	0x1b	27
6	0x04	4
7	0xbf	-65
8	0xf7	-9
9	0x1c	28
10	0xfb	-5
11	0xf1	-15
12	0xe6	-26
13	0x16	22
14	0xd6	-42
15	0xe1	-31
16	0x0d	13
17	0xee	-18
18	0xef	-17
19	0xf1	-15
20	0x29	41
21	0x0e	14
22	0xd9	-39
23	0x17	23
24	0x0f	15
25	0xd3	-45
26	0xfd	-3
27	0xe7	-25
28	0x29	41
29	0xf1	-15
30	0xfc	-4
31	0x03	3
32	0xf9	-7
33	0xf6	-10
34	0x02	2
35	0xf3	-13
36	0xef	-17
37	0x07	7
38	0x32	50
39	0xe7	-25
40	0xd6	-42
41	0x09	9
42	0xf7	-9
43	0xe2	-30
44	0xf8	-8
45	0x1c	28
46	0x1a	26
47	0xec	-20
48	0xc3	-61
49	0xf0	-16
50	0x00	0
51	0x09	9
52	0x25	37
53	0xf5	-11
54	0x16	22
55	0xd3	-45
56	0xd5	-43
57	0x04	4
58	0xea	-22
59	0xd9	-39
60	0x2b	43
61	0x11	17
62	0x2c	44
63	0xe1	-31
64	0x2c	44
65	0xfd	-3
66	0xf6	-10
67	0xc8	-56
68	0xcf	-49
69	0x2f	47
70	0xf0	-16
71	0xc4	-60
72	0xf3	-13
73	0xe8	-24
74	0x1b	27
75	0x0d	13
76	0xdc	-36
77	0xdd	-35
78	0x0b	11
79	0x0b	11
80	0x19	25
81	0x06	6
82	0x29	41
83	0x23	35
84	0xe8	-24
85	0x04	4
86	0x17	23
87	0xe0	-32
88	0xd2	-46
89	0xfc	-4
90	0xfc	-4
91	0x0a	10
92	0x24	36
93	0xf6	-10
94	0x08	8
95	0xf4	-12
96	0xf9	-7
97	0x06	6
98	0xdf	-33
99	0x0f	15
100	0xcc	-52
101	0x22	34
102	0x24	36
103	0x04	4
104	0xe1	-31
105	0x2c	44
106	0xff	-1
107	0xd1	-47
108	0x27	39
109	0xd9	-39
110	0x04	4
111	0xd7	-41
112	0xf9	-7
113	0xed	-19
114	0x1b	27
115	0x11	17
116	0xf2	-14
117	0xfb	-5
118	0xef	-17
119	0xf7	-9
120	0x01	1
121	0xd8	-40
122	0x38	56
123	0xe4	-28
124	0xf1	-15
125	0x35	53
126	0xed	-19
127	0xdd	-35
128	0x1e	30
129	0x1a	26
130	0x22	34
131	0xdc	-36
132	0xf6	-10
133	0xfb	-5
134	0xed	-19
135	0xce	-50
136	0xdd	-35
137	0x2a	42
138	0x06	6
139	0x04	4
140	0x20	32
141	0xda	-38
142	0x12	18
143	0x23	35
144	0xdf	-33
145	0x09	9
146	0x11	17
147	0xee	-18
148	0x1e	30
149	0x1c	28
150	0xfd	-3
151	0xd3	-45
152	0x0d	13
153	0xe4	-28
154	0x2d	45
155	0xed	-19
156	0xf9	-7
157	0xf3	-13
158	0x00	0
159	0xf9	-7
160	0x31	49
161	0xe9	-23
162	0x0c	12
163	0x21	33
164	0xd2	-46
165	0x17	23
166	0x0e	14
167	0x04	4
168	0xdf	-33
169	0x11	17
170	0xc7	-57
171	0x16	22
172	0xf0	-16
173	0x1d	29
174	0xce	-50
175	0x0c	12
176	0x0c	12
177	0x11	17
178	0x13	19
179	0xd2	-46
180	0x11	17
181	0xf3	-13
182	0x04	4
183	0x2b	43
184	0xdf	-33
185	0x01	1
186	0xc9	-55
187	0xdc	-36
188	0xc5	-59
189	0x0a	10
190	0xf5	-11
191	0x0c	12
192	0xeb	-21
193	0xbc	-68
194	0xcf	-49
195	0x02	2
196	0xdb	-37
197	0x2d	45
198	0xce	-50
199	0xe0	-32
200	0x22	34
201	0x08	8
202	0xd7	-41
203	0x25	37
204	0x22	34
205	0x20	32
206	0xe4	-28
207	0xfe	-2
208	0x0c	12
209	0x11	17
210	0x1e	30
211	0xfa	-6
212	0xde	-34
213	0x1a	26
214	0xe3	-29
215	0xca	-54
216	0x1d	29
217	0xe4	-28
218	0xe6	-26
219	0xf5	-11
220	0xdc	-36
221	0xe8	-24
222	0x18	24
223	0xe9	-23
224	0x2a	42
225	0xed	-19
226	0x38	56
227	0x06	6
228	0xe4	-28
229	0xf3	-13
230	0xee	-18
231	0x1d	29
232	0xf8	-8
233	0xfb	-5
234	0xee	-18
235	0x00	0
236	0xfe	-2
237	0x04	4
238	0xe0	-32
239	0xec	-20
240	0x10	16
241	0x1c	28
242	0x00	0
243	0xeb	-21
244	0x21	33
245	0xf0	-16
246	0xeb	-21
247	0xe2	-30
248	0xec	-20
249	0x19	25
250	0x20	32
251	0x11	17
252	0xf7	-9
253	0xdf	-33
254	0xf9	-7
255	0xe2	-30

conv2.weight_quantized i1 [64, 64, 3, 3]
0	0xff	-1
1	0x02	2
2	0x00	0
3	0x01	1
4	0xff	-1
5	0xfe	-2
6	0xff	-1
7	0x06	6
8	0x02	2
9	0xf7	-9
10	0x03	3
11	0xfa	-6
12	0x00	0
13	0x06	6
14	0xfc	-4
15	0x05	5
16	0xfe	-2
17	0xf3	-13
18	0x02	2
19	0xfc	-4
20	0x01	1
21	0x00	0
22	0xf9	-7
23	0x05	5
24	0xff	-1
25	0xf8	-8
26	0x0a	10
27	0xfc	-4
28	0x02	2
29	0xff	-1
30	0xfc	-4
31	0xff	-1
32	0x00	0
33	0xfc	-4
34	0x03	3
35	0xfa	-6
36	0xfc	-4
37	0xfd	-3
38	0xf6	-10
39	0xf6	-10
40	0xf7	-9
41	0xfa	-6
42	0xf6	-10
43	0xf1	-15
44	0xfd	-3
45	0x00	0
46	0x00	0
47	0xfd	-3
48	0xff	-1
49	0xfe	-2
50	0xff	-1
51	0xfe	-2
52	0x01	1
53	0xfe	-2
54	0xfc	-4
55	0xfa	-6
56	0xfd	-3
57	0x08	8
58	0x02	2
59	0x05	5
60	0xfd	-3
61	0x00	0
62	0x00	0
63	0xfd	-3
64	0xfb	-5
65	0xfa	-6
66	0xf1	-15
67	0xfc	-4
68	0xf9	-7
69	0xf2	-14
70	0xf7	-9
71	0xec	-20
72	0xf8	-8
73	0xf9	-7
74	0x00	0
75	0xff	-1
76	0xfb	-5
77	0x02	2
78	0x01	1
79	0xfa	-6
80	0xfe	-2
81	0xff	-1
82	0xfb	-5
83	0xfa	-6
84	0xff	-1
85	0xfa	-6
86	0xff	-1
87	0xfc	-4
88	0xf7	-9
89	0x00	0
90	0x01	1
91	0xff	-1
92	0xfc	-4
93	0x04	4
94	0x06	6
95	0x00	0
96	0xfe	-2
97	0x00	0
98	0xfc	-4
99	0xfe	-2
100	0x01	1
101	0x02	2
102	0x01	1
103	0x02	2
104	0x00	0
105	0xfe	-2
106	0xfe	-2
107	0x00	0
108	0xf1	-15
109	0xfa	-6
110	0xfb	-5
111	0x0a	10
112	0xfc	-4
113	0xfb	-5
114	0x03	3
115	0xf8	-8
116	0x02	2
117	0xfe	-2
118	0xff	-1
119	0x05	5
120	0x01	1
121	0xf8	-8
122	0xfa	-6
123	0x03	3
124	0xee	-18
125	0x01	1
126	0x12	18
127	0x0a	10
128	0x0e	14
129	0x0a	10
130	0x08	8
131	0x04	4
132	0x03	3
133	0xf3	-13
134	0x03	3
135	0xfd	-3
136	0xfa	-6
137	0xfd	-3
138	0xf8	-8
139	0xf6	-10
140	0xf9	-7
141	0xf9	-7
142	0xf9	-7
143	0xf3	-13
144	0xfd	-3
145	0xf6	-10
146	0xf0	-16
147	0xf8	-8
148	0xf0	-16
149	0xf3	-13
150	0xfd	-3
151	0xf5	-11
152	0xf5	-11
153	0x03	3
154	0xfe	-2
155	0xfc	-4
156	0x06	6
157	0xfe	-2
158	0xfc	-4
159	0x07	7
160	0xfb	-5
161	0xfc	-4
162	0x00	0
163	0xfb	-5
164	0x03	3
165	0xfc	-4
166	0xf8	-8
167	0x00	0
168	0x00	0
169	0xfd	-3
170	0x00	0
171	0xff	-1
172	0x00	0
173	0xff	-1
174	0x03	3
175	0x01	1
176	0x01	1
177	0x03	3
178	0xff	-1
179	0x03	3
180	0xf8	-8
181	0xfe	-2
182	0xff	-1
183	0x0f	15
184	0x05	5
185	0x00	0
186	0xfd	-3
187	0xfd	-3
188	0x04	4
189	0xd8	-40
190	0xf9	-7
191	0x07	7
192	0xe2	-30
193	0xf0	-16
194	0xff	-1
195	0xeb	-21
196	0x01	1
197	0x09	9
198	0x06	6
199	0x07	7
200	0x06	6
201	0x05	5
202	0x02	2
203	0x05	5
204	0x02	2
205	0xf9	-7
206	0x06	6
207	0xfe	-2
208	0xfe	-2
209	0xfe	-2
210	0x00	0
211	0xff	-1
212	0xfb	-5
213	0x00	0
214	0xf9	-7
215	0xfa	-6
216	0xf0	-16
217	0xfa	-6
218	0x01	1
219	0xff	-1
220	0x08	8
221	0x01	1
222	0x00	0
223	0x06	6
224	0x01	1
225	0x0d	13
226	0x05	5
227	0xfd	-3
228	0x09	9
229	0x09	9
230	0x00	0
231	0x0a	10
232	0xfd	-3
233	0xf6	-10
234	0xff	-1
235	0xf9	-7
236	0xfe	-2
237	0xff	-1
238	0x00	0
239	0x03	3
240	0x00	0
241	0x00	0
242	0x01	1
243	0x01	1
244	0xfb	-5
245	0x01	1
246	0x01	1
247	0x01	1
248	0x03	3
249	0x03	3
250	0x03	3
251	0x00	0
252	0xf6	-10
253	0xf0	-16
254	0x05	5
255	0xff	-1

conv3.weight_quantized i1 [64, 64, 3, 3]
0	0x02	2
1	0xf8	-8
2	0x0d	13
3	0x04	4
4	0x07	7
5	0xff	-1
6	0x12	18
7	0x05	5
8	0x0c	12
9	0x00	0
10	0xf6	-10
11	0xf8	-8
12	0xfb	-5
13	0xf3	-13
14	0xf8	-8
15	0xf4	-12
16	0x07	7
17	0xff	-1
18	0xee	-18
19	0xfe	-2
20	0xee	-18
21	0xf5	-11
22	0xf8	-8
23	0xf9	-7
24	0xf7	-9
25	0xf5	-11
26	0xf6	-10
27	0xe7	-25
28	0xc5	-59
29	0xcf	-49
30	0xef	-17
31	0xc8	-56
32	0xa8	-88
33	0x25	37
34	0xc4	-60
35	0xc1	-63
36	0x00	0
37	0xea	-22
38	0xfb	-5
39	0xeb	-21
40	0x03	3
41	0xf2	-14
42	0xe7	-25
43	0xf5	-11
44	0xf2	-14
45	0x19	25
46	0xf7	-9
47	0x11	17
48	0xf9	-7
49	0x0c	12
50	0xfc	-4
51	0xf6	-10
52	0x06	6
53	0x02	2
54	0x0c	12
55	0xea	-22
56	0x02	2
57	0xfa	-6
58	0xdc	-36
59	0x04	4
60	0xf8	-8
61	0xef	-17
62	0xfc	-4
63	0xf8	-8
64	0xd2	-46
65	0xea	-22
66	0xf1	-15
67	0x04	4
68	0xf4	-12
69	0xe9	-23
70	0xf7	-9
71	0xfb	-5
72	0x0b	11
73	0x08	8
74	0x09	9
75	0x01	1
76	0x0c	12
77	0x09	9
78	0x01	1
79	0x0a	10
80	0x07	7
81	0x06	6
82	0xf0	-16
83	0x0f	15
84	0xf6	-10
85	0xff	-1
86	0x0e	14
87	0xe9	-23
88	0xf9	-7
89	0xf5	-11
90	0xfe	-2
91	0xf8	-8
92	0xfd	-3
93	0xe0	-32
94	0xf8	-8
95	0xe9	-23
96	0x06	6
97	0x09	9
98	0x03	3
99	0x0e	14
100	0xfe	-2
101	0xfe	-2
102	0x03	3
103	0xfc	-4
104	0x08	8
105	0x07	7
106	0xfe	-2
107	0x01	1
108	0x1f	31
109	0x0f	15
110	0x13	19
111	0x0f	15
112	0x03	3
113	0x07	7
114	0x1f	31
115	0x08	8
116	0x11	17
117	0xfa	-6
118	0xfd	-3
119	0xfc	-4
120	0xfb	-5
121	0xfd	-3
122	0xfe	-2
123	0x02	2
124	0x00	0
125	0x01	1
126	0x10	16
127	0x0f	15
128	0x0e	14
129	0x0f	15
130	0xfe	-2
131	0x10	16
132	0x0f	15
133	0x06	6
134	0x06	6
135	0x0b	11
136	0xfc	-4
137	0x11	17
138	0x02	2
139	0x07	7
140	0x04	4
141	0x06	6
142	0x05	5
143	0x05	5
144	0x02	2
145	0x0c	12
146	0xfe	-2
147	0x09	9
148	0x01	1
149	0x03	3
150	0x04	4
151	0xfe	-2
152	0x01	1
153	0x27	39
154	0x09	9
155	0x0b	11
156	0x02	2
157	0x0c	12
158	0xfd	-3
159	0x1b	27
160	0x0f	15
161	0xfa	-6
162	0xef	-17
163	0x05	5
164	0xef	-17
165	0xf6	-10
166	0xf2	-14
167	0xf8	-8
168	0x0a	10
169	0xf6	-10
170	0x0a	10
171	0xf9	-7
172	0x0d	13
173	0xfd	-3
174	0x05	5
175	0x01	1
176	0x05	5
177	0x0c	12
178	0x06	6
179	0x01	1
180	0xf9	-7
181	0xe7	-25
182	0xde	-34
183	0x0c	12
184	0xf7	-9
185	0xe5	-27
186	0xfe	-2
187	0xf8	-8
188	0xe4	-28
189	0xd2	-46
190	0xfa	-6
191	0xfa	-6
192	0xf7	-9
193	0xfc	-4
194	0xf9	-7
195	0xe3	-29
196	0xee	-18
197	0xef	-17
198	0x04	4
199	0x04	4
200	0x0b	11
201	0x12	18
202	0x09	9
203	0x0d	13
204	0x05	5
205	0x08	8
206	0x09	9
207	0xf8	-8
208	0xfc	-4
209	0xfc	-4
210	0xfc	-4
211	0x05	5
212	0xfd	-3
213	0xe7	-25
214	0xfe	-2
215	0x03	3
216	0xf9	-7
217	0xfb	-5
218	0x06	6
219	0x13	19
220	0xf7	-9
221	0xf6	-10
222	0xff	-1
223	0x04	4
224	0x00	0
225	0xf9	-7
226	0x02	2
227	0xf7	-9
228	0xff	-1
229	0x07	7
230	0x01	1
231	0xfa	-6
232	0xfc	-4
233	0xed	-19
234	0xe7	-25
235	0x03	3
236	0xf8	-8
237	0xe8	-24
238	0xe2	-30
239	0xfa	-6
240	0xfe	-2
241	0xf8	-8
242	0xf9	-7
243	0x02	2
244	0x0e	14
245	0xff	-1
246	0x05	5
247	0xfc	-4
248	0x0c	12
249	0xfc	-4
250	0x01	1
251	0x01	1
252	0xfa	-6
253	0x03	3
254	0x01	1
255	0xf9	-7

conv4.weight_quantized i1 [64, 64, 3, 3]
0	0xfc	-4
1	0xfc	-4
2	0xf7	-9
3	0x01	1
4	0x01	1
5	0x04	4
6	0xf7	-9
7	0xf6	-10
8	0xf1	-15
9	0xfb	-5
10	0xfb	-5
11	0xfb	-5
12	0x09	9
13	0x05	5
14	0x09	9
15	0x03	3
16	0xfc	-4
17	0xfc	-4
18	0xf0	-16
19	0xf3	-13
20	0xf7	-9
21	0xfc	-4
22	0xf0	-16
23	0xf5	-11
24	0xfa	-6
25	0xfa	-6
26	0x00	0
27	0xf8	-8
28	0xf5	-11
29	0xfe	-2
30	0xfc	-4
31	0xfc	-4
32	0xfc	-4
33	0xff	-1
34	0xfb	-5
35	0xff	-1
36	0x19	25
37	0x12	18
38	0x13	19
39	0x0f	15
40	0x15	21
41	0x0f	15
42	0xf6	-10
43	0xef	-17
44	0x01	1
45	0xec	-20
46	0x0b	11
47	0x07	7
48	0xfc	-4
49	0x03	3
50	0xf9	-7
51	0xf9	-7
52	0x0f	15
53	0xf0	-16
54	0xfb	-5
55	0x03	3
56	0xfd	-3
57	0x05	5
58	0xfa	-6
59	0xfe	-2
60	0xf7	-9
61	0xff	-1
62	0x02	2
63	0xf7	-9
64	0xfd	-3
65	0x07	7
66	0xf7	-9
67	0x04	4
68	0x05	5
69	0xee	-18
70	0xec	-20
71	0xee	-18
72	0xf1	-15
73	0xf1	-15
74	0xf2	-14
75	0xf4	-12
76	0xf7	-9
77	0xf6	-10
78	0x02	2
79	0xf9	-7
80	0xff	-1
81	0xf5	-11
82	0xfe	-2
83	0xf3	-13
84	0xfe	-2
85	0x0e	14
86	0xf7	-9
87	0xff	-1
88	0x05	5
89	0xf6	-10
90	0x15	21
91	0xed	-19
92	0xe9	-23
93	0x0a	10
94	0xfb	-5
95	0xe6	-26
96	0x00	0
97	0xf9	-7
98	0xfd	-3
99	0x06	6
100	0xf8	-8
101	0x06	6
102	0xf7	-9
103	0xf7	-9
104	0xf9	-7
105	0x00	0
106	0xf8	-8
107	0xff	-1
108	0xf5	-11
109	0x02	2
110	0xf2	-14
111	0xfa	-6
112	0xff	-1
113	0x06	6
114	0xf7	-9
115	0xfa	-6
116	0xfd	-3
117	0xf7	-9
118	0x06	6
119	0xf3	-13
120	0xec	-20
121	0xff	-1
122	0xeb	-21
123	0x03	3
124	0x11	17
125	0xf1	-15
126	0xf9	-7
127	0x00	0
128	0xfa	-6
129	0x01	1
130	0xf1	-15
131	0x03	3
132	0xf2	-14
133	0xf2	-14
134	0xef	-17
135	0xff	-1
136	0xf9	-7
137	0x05	5
138	0xf7	-9
139	0x07	7
140	0xfc	-4
141	0x04	4
142	0xfb	-5
143	0xf6	-10
144	0xfd	-3
145	0x03	3
146	0xff	-1
147	0x01	1
148	0x08	8
149	0x0c	12
150	0x00	0
151	0xf4	-12
152	0xf8	-8
153	0x0f	15
154	0x14	20
155	0x11	17
156	0x10	16
157	0x05	5
158	0x03	3
159	0xf6	-10
160	0xfb	-5
161	0xf8	-8
162	0x0a	10
163	0xec	-20
164	0xfb	-5
165	0xff	-1
166	0xec	-20
167	0xf0	-16
168	0x0e	14
169	0xe7	-25
170	0xfd	-3
171	0xf5	-11
172	0xfa	-6
173	0xf0	-16
174	0xf6	-10
175	0xf1	-15
176	0x01	1
177	0xf2	-14
178	0xf3	-13
179	0xfe	-2
180	0x05	5
181	0x04	4
182	0x07	7
183	0x09	9
184	0x06	6
185	0xfc	-4
186	0xff	-1
187	0xf5	-11
188	0xf7	-9
189	0xfa	-6
190	0x11	17
191	0x09	9
192	0x0b	11
193	0x0e	14
194	0x18	24
195	0x01	1
196	0x03	3
197	0x10	16
198	0xfe	-2
199	0xf6	-10
200	0xfc	-4
201	0xf6	-10
202	0xff	-1
203	0x02	2
204	0xfc	-4
205	0xfd	-3
206	0xf7	-9
207	0xf4	-12
208	0x06	6
209	0x03	3
210	0xfc	-4
211	0x06	6
212	0x02	2
213	0xff	-1
214	0xff	-1
215	0x11	17
216	0xf6	-10
217	0xf1	-15
218	0xf0	-16
219	0xfb	-5
220	0xec	-20
221	0xf0	-16
222	0xed	-19
223	0xf1	-15
224	0xfb	-5
225	0x05	5
226	0x05	5
227	0x05	5
228	0x13	19
229	0x0b	11
230	0x0f	15
231	0x17	23
232	0x0c	12
233	0x16	22
234	0x05	5
235	0xff	-1
236	0xfc	-4
237	0xfd	-3
238	0xfa	-6
239	0xfe	-2
240	0xf2	-14
241	0xef	-17
242	0xec	-20
243	0xf5	-11
244	0xfa	-6
245	0xf9	-7
246	0xfb	-5
247	0xfb	-5
248	0xf9	-7
249	0xf8	-8
250	0xfd	-3
251	0xf9	-7
252	0x07	7
253	0x04	4
254	0x02	2
255	0x0e	14

conv5.weight_quantized i1 [64, 64, 3, 3]
0	0xf5	-11
1	0xf9	-7
2	0x0e	14
3	0x00	0
4	0xfb	-5
5	0x0b	11
6	0xfb	-5
7	0x06	6
8	0x0a	10
9	0x0b	11
10	0x08	8
11	0x03	3
12	0xf3	-13
13	0xf5	-11
14	0x07	7
15	0x02	2
16	0x04	4
17	0x00	0
18	0xdc	-36
19	0xfc	-4
20	0xa5	-91
21	0xff	-1
22	0xe5	-27
23	0xd6	-42
24	0xc6	-58
25	0xe0	-32
26	0xf2	-14
27	0xde	-34
28	0xf5	-11
29	0xfb	-5
30	0xf8	-8
31	0xfc	-4
32	0xf5	-11
33	0x06	6
34	0x11	17
35	0xff	-1
36	0x00	0
37	0x09	9
38	0x05	5
39	0xff	-1
40	0xf7	-9
41	0x08	8
42	0xf8	-8
43	0x06	6
44	0x01	1
45	0x03	3
46	0x0b	11
47	0x18	24
48	0xfe	-2
49	0x05	5
50	0xff	-1
51	0x16	22
52	0x08	8
53	0xff	-1
54	0x06	6
55	0x04	4
56	0xea	-22
57	0xfe	-2
58	0xf3	-13
59	0xeb	-21
60	0xf8	-8
61	0xf4	-12
62	0xf7	-9
63	0xf3	-13
64	0xcb	-53
65	0x19	25
66	0xfa	-6
67	0xe8	-24
68	0x0b	11
69	0xf1	-15
70	0x0c	12
71	0xe6	-26
72	0xf4	-12
73	0xf6	-10
74	0xff	-1
75	0xfc	-4
76	0x00	0
77	0x09	9
78	0x02	2
79	0xfc	-4
80	0x10	16
81	0xe4	-28
82	0xdc	-36
83	0xe7	-25
84	0xd6	-42
85	0xd8	-40
86	0xf2	-14
87	0xd3	-45
88	0xd4	-44
89	0xe5	-27
90	0x11	17
91	0xf6	-10
92	0x01	1
93	0xf9	-7
94	0xed	-19
95	0x16	22
96	0x0a	10
97	0x0f	15
98	0x15	21
99	0xf7	-9
100	0x07	7
101	0x0c	12
102	0xe1	-31
103	0xfc	-4
104	0x0a	10
105	0xe6	-26
106	0x12	18
107	0xfb	-5
108	0xef	-17
109	0x02	2
110	0x00	0
111	0xef	-17
112	0xf0	-16
113	0xf2	-14
114	0xf9	-7
115	0xfd	-3
116	0xf7	-9
117	0xe5	-27
118	0x06	6
119	0xf4	-12
120	0xdf	-33
121	0xf0	-16
122	0xca	-54
123	0xce	-50
124	0xda	-38
125	0xd1	-47
126	0xf8	-8
127	0x02	2
128	0x06	6
129	0x09	9
130	0x02	2
131	0x0c	12
132	0xf8	-8
133	0xfd	-3
134	0x05	5
135	0xfb	-5
136	0xff	-1
137	0xe9	-23
138	0xfe	-2
139	0xf1	-15
140	0xf2	-14
141	0xfa	-6
142	0xf6	-10
143	0xf8	-8
144	0xe1	-31
145	0xef	-17
146	0x01	1
147	0xe9	-23
148	0x00	0
149	0x03	3
150	0xf4	-12
151	0x06	6
152	0x09	9
153	0x0a	10
154	0xfc	-4
155	0xf9	-7
156	0x03	3
157	0xff	-1
158	0xfe	-2
159	0xf7	-9
160	0xff	-1
161	0xfe	-2
162	0xf7	-9
163	0x16	22
164	0x1a	26
165	0xfc	-4
166	0x20	32
167	0x0e	14
168	0x0a	10
169	0x1e	30
170	0x14	20
171	0x12	18
172	0x01	1
173	0x09	9
174	0x0f	15
175	0x0b	11
176	0x12	18
177	0x09	9
178	0xfa	-6
179	0xe6	-26
180	0x03	3
181	0xec	-20
182	0x07	7
183	0xe5	-27
184	0xea	-22
185	0x1b	27
186	0x03	3
187	0x0d	13
188	0x13	19
189	0xec	-20
190	0xe5	-27
191	0xf8	-8
192	0xeb	-21
193	0xe0	-32
194	0xe5	-27
195	0xd8	-40
196	0xeb	-21
197	0xe1	-31
198	0xf8	-8
199	0xfa	-6
200	0xfe	-2
201	0x04	4
202	0x06	6
203	0x05	5
204	0xff	-1
205	0x06	6
206	0xf8	-8
207	0x01	1
208	0x0c	12
209	0xff	-1
210	0xf5	-11
211	0xfb	-5
212	0x0d	13
213	0xf7	-9
214	0x05	5
215	0x06	6
216	0x00	0
217	0x00	0
218	0xfc	-4
219	0x0b	11
220	0xfc	-4
221	0x07	7
222	0xf6	-10
223	0x06	6
224	0x08	8
225	0xe5	-27
226	0xf8	-8
227	0xfb	-5
228	0xe1	-31
229	0x0d	13
230	0xe2	-30
231	0x0c	12
232	0x11	17
233	0xef	-17
234	0xfb	-5
235	0xfe	-2
236	0xe4	-28
237	0xfc	-4
238	0x05	5
239	0xef	-17
240	0xf9	-7
241	0xe3	-29
242	0xfd	-3
243	0x06	6
244	0x04	4
245	0x0b	11
246	0x06	6
247	0xf4	-12
248	0xfd	-3
249	0xfe	-2
250	0x04	4
251	0x09	9
252	0xed	-19
253	0x03	3
254	0x15	21
255	0x0d	13

conv6.weight_quantized i1 [1, 64, 3, 3]
0	0xec	-20
1	0x1c	28
2	0xee	-18
3	0x0d	13
4	0xcc	-52
5	0xac	-84
6	0x1f	31
7	0xb6	-74
8	0xe1	-31
9	0xf5	-11
10	0xe8	-24
11	0x19	25
12	0xa9	-87
13	0xbf	-65
14	0xbd	-67
15	0x09	9
16	0x14	20
17	0xfe	-2
18	0x35	53
19	0xc6	-58
20	0xdf	-33
21	0x4c	76
22	0x3d	61
23	0x1d	29
24	0xef	-17
25	0xfd	-3
26	0xdc	-36
27	0xf2	-14
28	0xf6	-10
29	0x15	21
30	0xf2	-14
31	0x01	1
32	0x1e	30
33	0x19	25
34	0x2b	43
35	0x25	37
36	0x15	21
37	0x0b	11
38	0xf1	-15
39	0x20	32
40	0x11	17
41	0xed	-19
42	0x07	7
43	0x54	84
44	0x02	2
45	0x3a	58
46	0xf3	-13
47	0xff	-1
48	0x22	34
49	0x1e	30
50	0x38	56
51	0xf2	-14
52	0x28	40
53	0x06	6
54	0x24	36
55	0xe9	-23
56	0x15	21
57	0xff	-1
58	0x1f	31
59	0x09	9
60	0x24	36
61	0x06	6
62	0xed	-19
63	0x1b	27
64	0x0d	13
65	0x31	49
66	0xf0	-16
67	0xfd	-3
68	0x67	103
69	0x12	18
70	0xf6	-10
71	0xdb	-37
72	0xef	-17
73	0x4b	75
74	0xfd	-3
75	0xe8	-24
76	0x01	1
77	0x0b	11
78	0x05	5
79	0xfd	-3
80	0xf6	-10
81	0xd2	-46
82	0x3d	61
83	0x06	6
84	0xd2	-46
85	0x30	48
86	0xb9	-71
87	0xfb	-5
88	0x20	32
89	0x39	57
90	0xce	-50
91	0xca	-54
92	0x22	34
93	0x0e	14
94	0x31	49
95	0xc8	-56
96	0x1d	29
97	0x1b	27
98	0x11	17
99	0xeb	-21
100	0x4c	76
101	0x13	19
102	0xeb	-21
103	0xcf	-49
104	0x32	50
105	0xf7	-9
106	0xff	-1
107	0xff	-1
108	0xf2	-14
109	0x32	50
110	0x37	55
111	0xf4	-12
112	0x19	25
113	0x0a	10
114	0xe1	-31
115	0x3a	58
116	0x07	7
117	0xd4	-44
118	0xf5	-11
119	0x29	41
120	0x0c	12
121	0x22	34
122	0x24	36
123	0x29	41
124	0x05	5
125	0xec	-20
126	0xf4	-12
127	0x2c	44
128	0x9d	-99
129	0x1e	30
130	0xc3	-61
131	0xde	-34
132	0xf1	-15
133	0x00	0
134	0x37	55
135	0xe7	-25
136	0x26	38
137	0x47	71
138	0x52	82
139	0xe5	-27
140	0x25	37
141	0xbe	-66
142	0xbb	-69
143	0x26	38
144	0x05	5
145	0x1f	31
146	0xdf	-33
147	0x17	23
148	0x21	33
149	0xef	-17
150	0x2b	43
151	0xd8	-40
152	0xec	-20
153	0x2f	47
154	0x05	5
155	0xfc	-4
156	0xe3	-29
157	0x59	89
158	0x01	1
159	0x27	39
160	0x03	3
161	0xff	-1
162	0xea	-22
163	0x16	22
164	0x3b	59
165	0x08	8
166	0xe0	-32
167	0x05	5
168	0xe5	-27
169	0x24	36
170	0x36	54
171	0xc4	-60
172	0xfb	-5
173	0x08	8
174	0x62	98
175	0x4c	76
176	0xed	-19
177	0x09	9
178	0x0b	11
179	0x10	16
180	0x1b	27
181	0xee	-18
182	0x1d	29
183	0xe5	-27
184	0x1a	26
185	0xe5	-27
186	0x13	19
187	0x61	97
188	0xea	-22
189	0x4a	74
190	0x46	70
191	0xf1	-15
192	0xde	-34
193	0xe3	-29
194	0xef	-17
195	0x14	20
196	0x57	87
197	0xfb	-5
198	0xf1	-15
199	0xeb	-21
200	0xc6	-58
201	0x2f	47
202	0xfd	-3
203	0x06	6
204	0x3a	58
205	0x33	51
206	0xd1	-47
207	0xfa	-6
208	0x14	20
209	0xf9	-7
210	0x0e	14
211	0x01	1
212	0x36	54
213	0x2b	43
214	0xf4	-12
215	0x4a	74
216	0x0e	14
217	0x49	73
218	0x29	41
219	0x03	3
220	0x11	17
221	0xc0	-64
222	0xe0	-32
223	0x1b	27
224	0xd9	-39
225	0xec	-20
226	0xd3	-45
227	0xf8	-8
228	0x10	16
229	0x24	36
230	0x28	40
231	0x14	20
232	0xf3	-13
233	0x11	17
234	0xea	-22
235	0xfe	-2
236	0xe2	-30
237	0xd4	-44
238	0x16	22
239	0x2d	45
240	0xe2	-30
241	0x0e	14
242	0xd2	-46
243	0xc5	-59
244	0x16	22
245	0xf3	-13
246	0x1d	29
247	0xfd	-3
248	0x26	38
249	0x17	23
250	0x39	57
251	0x32	50
252	0x4c	76
253	0x26	38
254	0x10	16
255	0xf4	-12
